Домашнее задание 1/torch_model/baseline_model.pth (torch, 478337 bytes, 11 tensors)

linear_relu_stack.0.weight f4 [180, 90]
000000 12 1c b1 bd fd e0 5b bd a5 8d ae 3d c5 e1 38 3c
       -0.08647932 -0.053681362 0.0852311 0.011284296
000010 e2 29 5f bd c3 fe d2 bd aa 5c 03 3c 0c aa a4 3d
       -0.054483302 -0.10302498 0.008017698 0.08040246
000020 28 b0 cb bc 1a 37 d5 bd 33 98 b5 bd cd e8 b3 3d
       -0.024864271 -0.104109004 -0.0886692 0.087846376
000030 86 20 c6 bd 47 c7 c6 bd 3b 7a 78 bd ae fc 02 bc
       -0.09674172 -0.09705978 -0.060663443 -0.007994814
000040 75 11 16 3d 6e 94 5b bb a8 24 31 3b 41 48 d4 3d
       0.036637742 -0.003350522 0.0027029905 0.10365344
000050 06 0b ab 3c 47 f1 87 bd ee ab 02 bd 58 cf 12 3d
       0.02087928 -0.06637817 -0.031902246 0.03584227
000060 83 9b a3 bd 6f 3d 9e 3d 2a 62 7c bd 71 75 3b 3d
       -0.07988646 0.07726561 -0.061617054 0.045766298
000070 fd 60 45 3d 5b 46 de bb aa 27 88 3d 6b 08 ab bb
       0.0481882 -0.0067832894 0.0664819 -0.0052195094
000080 33 83 4a 3d a0 b1 9d 3c 11 d5 83 bd b9 93 98 3d
       0.049441528 0.019249737 -0.064371236 0.07450051
000090 bb 2f 89 bd f2 9e a8 bd 09 fb 56 bc 40 57 a3 3b
       -0.06698557 -0.082334414 -0.013121375 0.0049847662
0000a0 4f d8 a6 bd 7a a4 67 3d ed a4 5c 3c 2e a4 80 bc
       -0.08146726 0.05655334 0.013467056 -0.015703287
0000b0 5f 40 cf bd 78 71 b8 3d cc 00 a3 bd 81 5e ec bc
       -0.101197 0.090060174 -0.07959136 -0.028853657
0000c0 6e 73 fe 3c 28 21 cb bd 79 90 44 bc a1 ef 9a 3d
       0.0310609 -0.099184334 -0.011997336 0.07565237
0000d0 73 5d d6 bd 38 17 cd 3d 2d c4 2b bd b5 63 a7 bd
       -0.10467043 0.10014194 -0.041935135 -0.081733145
0000e0 63 81 9f 3d 84 7d 6d 3c 4f 25 80 bc 77 61 f4 3c
       0.077883504 0.014495257 -0.01564279 0.029831631
0000f0 3d 6d 8f 3d 2c e8 d5 bd aa 93 d4 3c cb c5 fc bb
       0.070032574 -0.10444674 0.025949318 -0.0077140084
000100 ba 36 14 bd ac 13 a0 bd fa 5c 34 3d 93 db 36 bd
       -0.036185004 -0.07816252 0.04403398 -0.044642996
000110 ff 1e 47 3d c3 cd ad bd ea c7 d6 bd 54 50 e5 3c
       0.048613545 -0.084865116 -0.10487349 0.027992405
000120 ad b7 a0 bd ee fe 10 bd fd a5 c6 3d fb 0b 27 bd
       -0.078475334 -0.03539937 0.096996285 -0.04078291
000130 29 d7 6d 3c 65 79 bb 3d 89 af 9f bd 37 d7 d6 ba
       0.01451663 0.091540135 -0.077971525 -0.0016391043
000140 28 79 c6 bd 28 10 80 3d cb 3e 58 3a 10 0c c2 bd
       -0.096910775 0.062530816 0.0008249103 -0.09474957
000150 cf c6 6c 3d b3 93 74 bd 7c cc 2c bd 17 b4 02 bd
       0.057806786 -0.05971117 -0.0421872 -0.03191003
000160 c5 63 9a 3c 0c 22 8a bd 88 e4 26 3d ce 5b 86 bd
       0.018846402 -0.06744775 0.040745288 -0.06560479
000170 a9 a1 5b bd 24 30 62 bd 31 83 27 bb ed e1 2b bd
       -0.053620968 -0.05522169 -0.0025560374 -0.041963506
000180 d7 f2 93 3d b0 44 8a bc 2c 56 b0 bd 85 1e 09 bd
       0.072240524 -0.016878456 -0.08610186 -0.03347637
000190 27 01 e7 3a 7b 26 9a bd 9a 1e b7 bd d7 8b c3 be
       0.0017624245 -0.07526871 -0.08941384 -0.38192627
0001a0 96 01 e5 be 43 c1 f1 be 8f c1 98 be aa 08 0e be
       -0.44727772 -0.4721776 -0.29835173 -0.13870493
0001b0 d5 0e 85 bd 6c dc 44 be 8e 63 58 3c 18 f0 ad bc
       -0.064969696 -0.1922471 0.013207329 -0.02123265
0001c0 34 ad 59 bd 47 6a c0 bd a5 db 53 bd d8 3e 30 be
       -0.053143695 -0.09395271 -0.05172314 -0.17211473
0001d0 af 5f 1e 3e 1f 59 b2 3d 3b 11 9e bd 4b 0d 1f 3d
       0.15466188 0.08708405 -0.0771813 0.038831037
0001e0 c9 68 ea bc 03 04 c9 3d cc cd 98 bc 4f 63 80 3d
       -0.028614419 0.09815218 -0.01865282 0.062689416
0001f0 df 2c 83 bd 67 a4 b0 3d 40 24 b2 3c 44 b6 fd bc
       -0.06405043 0.08625107 0.021745801 -0.0309707
000200 05 eb 4f bd b4 a2 9e bd ab a5 d1 3d d3 e4 2d bd
       -0.05076124 -0.07745877 0.10236677 -0.042454552
000210 b0 2d 84 bd d7 41 c0 3d 61 fb 70 3d d0 1e ad 3d
       -0.06454027 0.09387558 0.058833484 0.08453143
000220 f9 0f 8d 3d d5 50 92 3d 9c 99 31 3d 85 ca 3c bd
       0.06887812 0.07144324 0.043359384 -0.046091575
000230 87 1c 99 3d 83 84 a5 bc 0c 91 a7 3d d9 46 a0 3d
       0.07476144 -0.020204788 0.08181962 0.07826013
000240 16 be 27 3c 68 9c 8e 3d 3c 9d c3 3d 34 27 76 bd
       0.010238191 0.06963426 0.095514745 -0.06009598
000250 ab fa 9d bd fa 59 1f bd 99 ce 0c 3d 68 a0 d1 bd
       -0.07713827 -0.038904168 0.034376714 -0.10235673
000260 46 eb 62 3c e2 db 94 3c 4d ed 76 3d 01 b3 1f bd
       0.013850039 0.018171255 0.0602849 -0.03898907
000270 6f e3 3b 3c 2f ec 9e bd f0 cd 85 bb e6 c4 51 3c
       0.011467799 -0.07759892 -0.0040833876 0.012803292
000280 ce b7 10 3d ae 88 80 3d f1 f0 7a 3d 64 04 59 3d
       0.03533154 0.062760696 0.061264936 0.052982703
000290 3c f4 a6 bd cc b1 85 bd 3a bd ce bd 0c b1 45 3c
       -0.08152053 -0.06528053 -0.10094686 0.012066137
0002a0 ce 11 8f bd 87 44 18 bd d5 d1 d8 bd 78 9d b0 3d
       -0.06985818 -0.037174728 -0.10586897 0.08623785
0002b0 fe f4 18 bd f8 62 e7 3c d5 62 77 bd ad da 70 3d
       -0.037343018 0.028245434 -0.060396988 0.058802295
0002c0 2d f6 a5 3c ed d7 0a 3d df fd 2c bb 35 ea a0 bd
       0.020258987 0.03389733 -0.0026396436 -0.078571714
0002d0 f1 a7 4b 3d 8b 5a 9d 3c ea 90 b5 3d 74 ba 8e bb
       0.04972071 0.019208213 0.08865531 -0.004355723
0002e0 69 d2 be 3c 01 a8 ce bd 1d 0e 0f bd 6e 69 d4 bc
       0.02329369 -0.10090638 -0.03492557 -0.025929179
0002f0 8f e3 cd 3d 4b c0 bb 3d 87 d2 58 bd 2d a5 bf bd
       0.10053169 0.09167536 -0.05293515 -0.09357677
000300 32 c3 96 3d e2 23 a1 3b ae fb 81 bd 73 2d 86 3a
       0.07361449 0.0049176076 -0.06346832 0.0010236934
000310 9a 91 89 bc 6d 7b 03 be e6 7f 45 bc 5c 73 b3 bd
       -0.016793061 -0.12840052 -0.012054419 -0.087622374
000320 c4 76 d1 bd 20 cf 0e 3c ec af 23 3c e9 63 97 bd
       -0.10227731 0.008716375 0.0099906735 -0.07392103
000330 ba f8 a3 3d ef a4 96 bd b8 8a 91 bd 8e 73 0d bd
       0.08006425 -0.07355677 -0.071065366 -0.03453403
000340 ed 31 a9 3c dc 09 86 bc a8 89 9d 3c b8 92 d8 bd
       0.02065369 -0.016362123 0.019230679 -0.105748594
000350 71 51 8e bd 10 0b a6 bd d8 c8 aa 3d c5 dd 99 3c
       -0.069491275 -0.08107579 0.08339089 0.018782506
000360 3f 04 a6 bd f6 9e bc bd 46 6a e2 bc dc c6 d0 bd
       -0.08106279 -0.09210007 -0.027638566 -0.101941794
000370 00 b5 e6 3c b3 cb fa 3b 59 ea a6 bc 3d 7d 3e 3d
       0.02816248 0.0076536774 -0.020375418 0.046506155
000380 46 84 80 3d 9d 88 67 3d 58 28 38 3c d9 d5 18 bd
       0.06275229 0.05652677 0.011240087 -0.037313316
000390 d0 d1 9f 3d f5 20 ff bc 1e dd e8 bc 47 bc 0d bd
       0.078036904 -0.031143645 -0.02842575 -0.034603383
0003a0 06 8d 06 bd d2 86 1f bd f1 83 27 3d 35 a8 ab 3d
       -0.032849334 -0.038946934 0.040897314 0.08381692
0003b0 13 b7 c3 3d 27 77 b6 3d 30 f8 b5 bd d7 af af 3d
       0.09556403 0.08909445 -0.08885229 0.08578461
0003c0 5a 0b 0c 3d 48 eb 5e bd ef 21 4e bd 58 5f ac 3d
       0.034190513 -0.0544236 -0.05032533 0.08416623
0003d0 68 53 88 bb 96 58 d9 3d 21 22 e0 3c 9e c5 61 3d
       -0.0041603334 0.106125996 0.027360024 0.055120103
0003e0 57 16 7b 3d 31 98 90 bd 1f b2 5f 3d 9e 4f 81 bd
       0.0613006 -0.07060278 0.05461323 -0.06314014
0003f0 35 d6 45 3c 09 40 d1 3b ee 53 1c bb a0 d1 dc 3b
       0.012074997 0.0063858074 -0.0023853737 0.0067388564

linear_relu_stack.0.bias f4 [180]
000000 e6 1c 21 bd 4f f2 83 bd d5 10 d0 3d 59 0a d0 bd
       -0.0393342 -0.06442701 0.101594605 -0.10158224
000010 83 f4 45 bc 9d 7b 76 3c b6 1d a4 bc 18 18 8a bd
       -0.012082222 0.01504412 -0.020033699 -0.06742877
000020 e5 8d ca 3d 67 17 77 bd 31 7e 88 3d ad 28 c6 3d
       0.098903455 -0.060325053 0.06664694 0.09675727
000030 f0 ba 58 3d 50 fa 9d 3d 3d 4a 4a 3d ee 92 0c bc
       0.052912652 0.07713759 0.049387205 -0.008579953
000040 7c d4 8f 3d 13 13 7f 3d 1f 85 38 bd b1 16 15 3d
       0.0702295 0.06227405 -0.04504883 0.036398593
000050 75 86 01 3d 3f 74 9c bd f6 4b 48 3d 39 01 96 bd
       0.03162237 -0.0763936 0.048900567 -0.07324452
000060 84 73 4e 3d fa 1c 8c 3c 45 34 15 3d f5 13 2f bd
       0.050403133 0.01710366 0.0364268 -0.042743642
000070 4d 9d a7 3d 39 24 aa bd 24 cb 12 3d 7c 6c 31 bc
       0.081842996 -0.0830769 0.03583826 -0.010829087
000080 8e 5c c4 3d cb fe cd bd e8 73 f5 3c 10 cc 07 3d
       0.09587966 -0.100583635 0.029962495 0.033153594
000090 30 24 8c bd 5a 52 cb 3c a6 02 bb 3d 00 34 15 3d
       -0.0684284 0.024819542 0.091313645 0.036426544
0000a0 aa 1e a7 bd f9 e9 2b bb 11 6f 9a bd 9a 43 b4 bd
       -0.081601456 -0.0026231988 -0.075407155 -0.088019565
0000b0 b3 d1 bf 3d e8 89 14 bd e1 71 ff 3c f9 39 4b 3d
       0.09366169 -0.03626433 0.031182231 0.049615834
0000c0 58 4e d4 3c 92 9d 61 3d d9 13 56 bd 39 e8 3e 3d
       0.025916263 0.05508191 -0.052265022 0.046608184
0000d0 28 cd c8 bc e7 13 d2 3c a0 29 91 3c 5f 0d 7d bd
       -0.024511889 0.025644256 0.017720044 -0.06178033
0000e0 7f 1e 53 3d 4a a8 8a 3c f7 f8 cc bc 50 00 1a 3d
       0.051542755 0.01692595 -0.02502106 0.037597954
0000f0 6c 88 14 bd 42 cc a7 bd 64 c3 bc bd 3e 59 d8 bb
       -0.036262915 -0.08193256 -0.09216955 -0.0066024354
000100 72 bf 46 bd d5 a6 ac bd d5 13 37 3d 13 f5 9d bd
       -0.04852242 -0.08430258 0.044696648 -0.0771276
000110 a7 77 75 bc 6e cb 7d bd 6d 37 3f 3c 10 c7 c4 bb
       -0.014982141 -0.061961584 0.011670929 -0.0060051754
000120 2a 70 2a bd 5b f8 ab bb b3 35 f0 bc 80 81 47 bd
       -0.041610874 -0.005248112 -0.02932248 -0.048707485
000130 58 4c 9d 3d 36 4a c8 bd c6 b1 5f 3d b6 ce d6 bd
       0.07680577 -0.097797796 0.054612897 -0.10488646
000140 28 aa d1 bd a3 cb 43 bd d2 3a f3 bb 0d f1 0c bd
       -0.10237533 -0.047801625 -0.0074227834 -0.03440957
000150 b2 49 88 bd ca 32 ad 3d dd b2 4f 3d 73 db 25 3d
       -0.06654681 0.08456953 0.050707687 0.040492486
000160 66 d4 75 bd e6 dd c6 bd 89 eb e3 bb c7 4c 42 bd
       -0.060017012 -0.097102925 -0.006955568 -0.0474365
000170 16 a6 03 3c 6c ef 89 bd af e3 f3 bc c2 30 0e bd
       0.008035203 -0.06735119 -0.029771654 -0.034714468
000180 e7 4d b4 bd 98 b2 9b bd 3b ca 41 bd 8c 12 8c 3d
       -0.08803921 -0.076024234 -0.047312003 0.06839475
000190 27 0c 63 3d 64 f1 b6 3d be 46 b3 3d 53 5d 29 bd
       0.05543151 0.0893276 0.087537274 -0.041348767
0001a0 1b 67 e2 3c a8 fc 28 bd d4 8b d4 3c 10 85 9b 3d
       0.027637055 -0.041256577 0.025945581 0.07593739
0001b0 87 1e b9 3d d9 ea 68 bd 14 28 01 3d b3 bf b3 bc
       0.09039026 -0.056864593 0.031532362 -0.021941995
0001c0 b8 66 53 3d 4b 2e 92 bd ad 45 b5 bd dc a0 6e bd
       0.051611632 -0.07137736 -0.0885118 -0.058258876
0001d0 8c 93 43 3d e8 44 46 bc d1 8c 83 bd b0 c1 55 3d
       0.047748134 -0.0121013895 -0.06423343 0.052186668
0001e0 4f 9a 42 bd 71 cd a3 bd c8 c2 a8 bd 7e e8 4f bc
       -0.04751044 -0.07998169 -0.082402766 -0.012689708
0001f0 aa 22 9c 3d 00 be af 3d 97 bc 01 bc e7 f0 09 3d
       0.07623799 0.085811615 -0.0079184985 0.033677008
000200 f0 e7 43 bd 70 2b 90 3d e5 03 a4 bc e7 81 bd 3d
       -0.047828615 0.07039535 -0.020021388 0.092532925
000210 f3 a6 aa 3c 07 07 cd 3d 96 88 52 bd c0 cb 0e 3d
       0.02083156 0.10011106 -0.05139979 0.03486228
000220 88 4c 92 bd 5e 3b 0c bd c6 bf 3f bd 8e 12 cf bc
       -0.071435034 -0.034236304 -0.04681375 -0.025277402
000230 b8 37 1e 3d 63 64 f4 3c be aa b4 3d dd ef d2 3d
       0.038627356 0.029833024 0.08821629 0.102996565
000240 c3 36 6e 3c 4c dc 9d bd 22 39 8f 3d f7 af 21 bd
       0.014539423 -0.07708034 0.06993319 -0.039474454
000250 34 21 1b 3d 01 aa e2 bc 3a f9 0f 3d c6 0a c7 3d
       0.03787346 -0.027668955 0.03514979 0.09718852
000260 4d b7 3e bd be 25 a9 3d eb 68 4b 3d 8e 5d d8 bd
       -0.046561528 0.08259152 0.049660604 -0.10564719
000270 02 6d 73 3d 8c 7b 9c bc e5 ab a0 bc 67 a9 91 bd
       0.05943013 -0.01910188 -0.019613216 -0.07112389
000280 17 ad 97 3d 0b 48 5f 3d 81 d3 66 bd 87 9e 1a 3d
       0.07406061 0.054512065 -0.05635405 0.03774884
000290 4d ec a9 3b 61 0e 03 bd 12 cd 0a 3d ac d0 b7 bd
       0.00518564 -0.031996135 0.033886977 -0.08975348
0002a0 32 a0 a0 3d 90 5e 9c bc 62 b8 dd bb 05 c7 2e 3d
       0.07843055 -0.01908806 -0.006766365 0.04267027
0002b0 fe 86 4e bd 31 6b 78 3d 1f 18 c5 3d 07 0c a7 3c
       -0.050421707 0.0606491 0.09623741 0.020391477
0002c0 bd e3 d1 bc 0f 78 ef 3c d2 84 b3 3d 00 eb e9 3a
       -0.02562129 0.029232053 0.08765568 0.0017846525

linear_relu_stack.2.weight f4 [360, 180]
000000 fa 38 4e 3d a4 16 71 bd f8 13 c4 bc f4 8d 17 3d
       0.050347306 -0.058859482 -0.023935303 0.03700061
000010 70 eb 5b bd 7e fb 22 bc 43 cc a4 bb d1 81 32 bd
       -0.053691328 -0.009947656 -0.0050292327 -0.043580834
000020 62 fc f7 bb a6 1f 85 3c 27 3c 1e bd 80 c4 e7 bc
       -0.007567928 0.016250443 -0.038631584 -0.02829194
000030 17 3b 97 bd d2 78 1f bc 42 3f 71 3d 55 6e c0 3c
       -0.07384317 -0.009733396 0.058898218 0.02349011
000040 73 c0 2a 3c 11 8a 3a bb c9 36 5b 3c 8e 1f 84 bd
       0.01042186 -0.0028463642 0.013379761 -0.06451331
000050 f5 d0 3c 3d f0 d2 1d bd 37 2a b2 3c 0c c1 12 3d
       0.046097714 -0.038531244 0.021748645 0.035828635
000060 66 77 8f 3d b4 a1 0a 3d a2 8f 51 bd 8a 79 96 3d
       0.07005195 0.03384562 -0.05116237 0.073474005
000070 18 e8 70 3d e1 47 08 3d 36 ed 77 bd cd e7 38 bd
       0.05881509 0.033271674 -0.060528956 -0.045142937
000080 36 d3 8a 3d 42 a1 62 3d 05 84 68 bd 92 47 b1 bc
       0.067785665 0.05532957 -0.05676653 -0.021640573
000090 aa 77 34 3d 1b 9c 28 3d 3e 11 a1 3b 76 4b 93 3d
       0.044059433 0.0411645 0.0049153855 0.071921274
0000a0 16 4c 8b bd 89 d3 94 3c af bf 17 bd b6 f4 0c bd
       -0.068016216 0.018167274 -0.037048038 -0.034413062
0000b0 ef 7b c1 bb b9 ed 41 bc ef 06 1f 3d 36 38 15 3d
       -0.0059046666 -0.011836463 0.03882497 0.03643056
0000c0 dc 57 89 bb d1 30 8a 3b 96 88 e8 ba 4e 2d 5e bb
       -0.004191382 0.004217245 -0.0017740901 -0.0033901515
0000d0 b6 d7 a6 3c 8f e5 58 3c cb 90 55 3c 63 cc 04 3d
       0.02036653 0.013238325 0.01303501 0.03242148
0000e0 b4 a0 1c 3c 87 5a b9 3c 58 c9 dc bb e8 48 27 bc
       0.009559799 0.022626175 -0.0067378692 -0.010210253
0000f0 e1 e7 96 3c 90 8c a9 3c c7 8f b1 3c 83 7b 96 3d
       0.018421115 0.020696908 0.021675004 0.07347777
000100 86 9b 14 3c 7c 48 7c 3d 43 6c 51 3c e2 b9 86 3d
       0.009070283 0.061592564 0.012782159 0.06578423
000110 1c 22 8c bc 28 91 24 bd f7 f2 8b bd e2 9c 6e bd
       -0.017106108 -0.040177494 -0.06833451 -0.058255084
000120 cd eb 54 bd cf 82 6d 3d 1a 98 94 bc bc d9 d0 3c
       -0.05198269 0.057986077 -0.018138934 0.025494449
000130 3c 98 40 3d 73 69 f4 3c c6 4c f0 3c c7 b1 40 bd
       0.047020182 0.029835438 0.029333483 -0.04704454
000140 d1 97 5a bd f1 40 8a bc 12 2f 94 bd 2e 91 79 bd
       -0.05336744 -0.01687667 -0.072355404 -0.06092947
000150 73 dd cf 3b 26 e8 77 3d 62 26 36 bd dc d1 c6 bc
       0.0063435375 0.06052413 -0.0444702 -0.02426999
000160 e3 12 80 3d 07 13 96 3d 2e 2b 33 bd d1 8e d8 3c
       0.06253602 0.07327848 -0.04374235 0.026435288
000170 fe 00 23 bd 15 b5 79 bc 39 59 c1 bc 91 9c 92 3d
       -0.039795868 -0.015240927 -0.023602115 0.07158769
000180 81 12 22 bc e6 9d 1b 3d 39 4c 49 3d 16 07 93 bd
       -0.009892107 0.03799238 0.049144957 -0.07179086
000190 a5 a9 8f 3d 83 3b 5f 3d da c1 1c 3d 10 f4 7d 3c
       0.07014779 0.054500114 0.03827081 0.015500084
0001a0 b8 25 32 3d 8c 01 27 bd 0d ff cd bc ce 39 6c 3c
       0.043493003 -0.04077296 -0.025146032 0.014418079
0001b0 7e d9 14 3d 74 35 0d bd f4 c1 d0 bb 8e 89 f9 3c
       0.03634023 -0.034474805 -0.0063707773 0.030461099
0001c0 7e d4 2b bd 70 35 35 bd 7f ae a7 3b 37 b0 32 bd
       -0.041950695 -0.044240415 0.005117237 -0.043625083
0001d0 69 51 d3 3c 9f 5c f5 3c c6 c6 57 3d bf 88 3d bd
       0.025795655 0.029951392 0.0526798 -0.04627299
0001e0 17 9a 9e 3c c5 78 06 bd e2 6e 62 bd ae e4 90 bc
       0.019360585 -0.03283002 -0.055281527 -0.017687168
0001f0 71 61 ce 3c c8 83 87 bd c1 ba 90 3c d6 e1 7c bd
       0.025192948 -0.06616932 0.017667176 -0.06173881
000200 17 15 d2 3b a0 48 91 bc 9d f5 41 bd df 79 49 bd
       0.0064112055 -0.017734826 -0.047353376 -0.04918849
000210 e4 e8 6f bd 37 bb ea bc 3d 4f b4 bc be 3c 56 3d
       -0.05857171 -0.028653724 -0.02201044 0.052304022
000220 f4 f9 93 bd 27 70 97 3b f1 5a 69 bd 59 63 5c bd
       -0.07225409 0.004621524 -0.056971494 -0.053805683
000230 12 0c 93 39 90 34 79 3b aa a3 90 bd 4f 81 42 3d
       0.00028047018 0.0038025714 -0.070624664 0.0474866
000240 de 03 8f 3d 5c c5 0f bd c5 0f db 3c 1d b1 e7 3c
       0.069831595 -0.035100326 0.026740918 0.028282696
000250 a0 9c 97 bd 22 3a a0 bc 49 2d 75 3b ab fb 36 bc
       -0.07402921 -0.01955897 0.0037411025 -0.011168401
000260 06 8b 9c bc 75 48 98 bd 04 36 13 3d 75 28 86 3d
       -0.01910926 -0.07435695 0.035940185 0.06550685
000270 55 23 e1 3c 0e 0b 70 bd ca df ce bc eb a1 95 3c
       0.027482668 -0.058604293 -0.025253195 0.018265685
000280 57 99 95 3b e9 f5 96 3d 15 8c 27 bd a1 f4 28 3d
       0.0045653987 0.073711224 -0.040905077 0.04124892
000290 a2 0e 63 3d b1 b8 6f bc 57 f9 3c bd d8 5d 81 3d
       0.055433877 -0.014631436 -0.046136227 0.063167274
0002a0 ee a0 11 3d 32 72 5e bd 28 65 7a 3d f3 74 3c 3d
       0.035553865 -0.054308124 0.061131626 0.04600997
0002b0 bf dc 5f bc fb cf 00 bd e0 64 56 3d 58 2b f9 bc
       -0.01366347 -0.031448346 0.052342296 -0.030416176
0002c0 db 53 7b bc 5c 39 99 bc 8c 3f 6f 3d 79 11 25 bd
       -0.015339817 -0.018704109 0.058410212 -0.040299866
0002d0 84 ec 40 3d a9 05 ce bc 68 4e aa 3c e1 1b 12 3d
       0.04710056 -0.025149183 0.02078934 0.03567112
0002e0 96 c1 26 bc 44 3a 00 3d fd df 50 be 74 f7 78 be
       -0.01017799 0.031305566 -0.20397945 -0.24313146
0002f0 a7 c7 4c be 32 45 e5 bd 10 c7 72 bb d5 96 89 3c
       -0.19998036 -0.111948386 -0.003704492 0.016795555
000300 15 45 36 bd f5 67 08 3d 7b c1 81 3c 52 c2 6c bd
       -0.044499476 0.033302266 0.015839329 -0.057802506
000310 00 55 7d bd 4c b1 83 bd ff 93 8d bd 41 76 46 be
       -0.06184864 -0.06430301 -0.06912994 -0.19381048
000320 49 d6 89 bd 4b 09 52 be 93 23 14 3d 7e d7 15 bd
       -0.06730325 -0.20511357 0.03616674 -0.036582462
000330 48 bf 5c bd 68 d3 69 be c6 ce 99 be 8a cf 48 3c
       -0.053893358 -0.22834551 -0.30040568 0.012256512
000340 db ab 01 bd f7 2a 7d bd aa 1b 4f bd 41 43 4c be
       -0.031658035 -0.061808553 -0.050563492 -0.1994753
000350 b6 ca 46 3c 05 40 7c bd 9f 3a ba be 2c bf 7d bd
       0.012133291 -0.06158449 -0.3637285 -0.061949894
000360 59 ec 91 bb 7d b1 3b 3c 25 7a 03 ba 27 5a 28 bd
       -0.0044532237 0.011455891 -0.00050154544 -0.0411016
000370 7d 9e 88 bb 2c 5c 1f be c8 d2 34 bd 25 dc 11 3b
       -0.004169284 -0.15562505 -0.04414633 0.002225646
000380 d5 20 e5 3c 40 b4 a3 bd c9 52 08 be 10 af de 3c
       0.027969757 -0.07993364 -0.1331283 0.027183086
000390 e5 e4 30 bc eb 38 6b 3d d8 d5 07 be d5 64 f0 be
       -0.01079676 0.057427328 -0.13265169 -0.4695193
0003a0 ab 19 b2 3c 87 0f 8f bd ad 4b 48 bd 92 9e ee be
       0.021740755 -0.069853835 -0.048900295 -0.46605355
0003b0 10 5b 1c 3d 92 11 88 bd c8 ae 18 bd 3e 3c 56 bd
       0.03817278 -0.06643976 -0.03727606 -0.052303545
0003c0 1d a9 e4 bd c2 62 54 bd ed 44 26 3d dc 73 fa bc
       -0.11165068 -0.051851995 0.040593076 -0.030572824
0003d0 33 1f 38 be 9d 52 ba 3c dc 1f 34 be ee 4c 34 bd
       -0.17980652 0.022744471 -0.17590278 -0.04401868
0003e0 39 b1 18 bd 15 e6 30 bb c3 41 fb be 40 19 1c be
       -0.037278388 -0.0026992608 -0.4907361 -0.15244007
0003f0 49 92 a2 bb 79 7d 81 3d aa d0 be bc 9f f9 b8 be
       -0.004961286 0.0632276 -0.023292858 -0.36127946

linear_relu_stack.2.bias f4 [360]
000000 89 1e 0b bd 3e 0f 7a bd 94 52 93 bd 88 e0 12 bc
       -0.033964667 -0.061049692 -0.07193485 -0.008964665
000010 21 d1 a9 3b dc b9 48 ba 30 f8 51 3d e5 f0 8b 3c
       0.005182401 -0.000765709 0.05126208 0.01708264
000020 8c c3 94 3c e2 c7 75 bd ff 07 0c bd 73 95 36 bd
       0.01815965 -0.060005076 -0.034187313 -0.04457612
000030 09 99 2f 3c 9b ce 04 3b 5a d1 58 3d 36 03 79 3d
       0.010717639 0.0020264748 0.05293403 0.060794078
000040 3e f6 31 bd 17 5f 14 3d 65 27 cb 3c 2b 1c 4a 3b
       -0.043447725 0.036223497 0.024799058 0.0030839543
000050 08 53 34 bd f7 d2 8b bd f0 7e 97 bc 67 e0 91 3d
       -0.044024497 -0.06827348 -0.018493146 0.071228795
000060 c1 eb 92 3d b9 7b 7a 3d f1 03 04 bd 11 15 02 bd
       0.07173873 0.061153147 -0.03223032 -0.03175837
000070 ed f8 65 bc 70 86 0d 3d 64 9f df 3c 0c 24 1b 3d
       -0.014036399 0.034552038 0.027297683 0.037876174
000080 f3 9a 26 bd 3c a0 44 3d 9e 55 92 3d 9e e7 05 bd
       -0.040675115 0.048004374 0.071452364 -0.03269159
000090 6f 99 40 bd d6 f4 7d bc 38 87 77 bd 76 5b 46 bd
       -0.047021326 -0.015500268 -0.06043169 -0.048427068
0000a0 37 21 36 3c 51 ee 81 3d e3 6e 3d 3d 92 81 97 bd
       0.0111163175 0.06344283 0.046248328 -0.073977605
0000b0 da 44 2b 3d c7 7c 0e 3d e5 37 26 bd 45 ff 46 bd
       0.04181371 0.034786966 -0.04058065 -0.048583288
0000c0 3d d4 85 bd bf e7 00 3d 2a 20 32 3d ba a9 25 3c
       -0.06534622 0.03147101 0.043487705 0.010111267
0000d0 67 61 88 3d a9 ff d7 3c 50 a3 26 3c 1d 9a 84 3d
       0.06659203 0.026367025 0.010170773 0.06474707
0000e0 78 e3 6a bd 21 97 c1 bb 5f 8e e0 ba 87 54 95 bd
       -0.057345837 -0.0059079085 -0.0017132274 -0.07291513
0000f0 89 56 24 bd f2 f2 be 3c 8d c2 01 3d 27 88 0f bd
       -0.04012159 0.023309205 0.03167968 -0.035041954
000100 52 9b f7 bc 13 56 57 bd 37 a9 67 ba 5d 4e 88 3b
       -0.03022543 -0.05257232 -0.00088371657 0.0041597323
000110 4c b4 87 bd 14 8b 4f 3d 7b 06 e7 3b e7 a4 2d bd
       -0.06626186 0.050669745 0.007050333 -0.04239359
000120 1a d0 09 3c c4 03 e4 bc 2e 6b 92 bd a9 d2 6e 3d
       0.008411432 -0.027833827 -0.07149349 0.05830637
000130 f6 61 51 3c c5 19 0c bd 08 44 5b bd 07 4c 7b bd
       0.012779703 -0.034204263 -0.053531677 -0.061351802
000140 e1 a1 23 3d 95 c7 34 bd c7 de 96 3c 2e 65 3f 3c
       0.0399493 -0.04413565 0.018416775 0.011681838
000150 73 9f ae 3b c0 27 b8 bb a2 d7 12 3d fc 53 8d 3d
       0.0053290664 -0.005619973 0.035850175 0.069007844
000160 ef 35 94 bd f9 d4 2a ba 36 b9 1a bd 77 cd 83 bd
       -0.072368495 -0.0006516721 -0.037774287 -0.06435674
000170 2e d2 ea bb 5c 0d 48 3c 88 9e 76 3d c1 5c 7f bd
       -0.0071661687 0.012210216 0.06020978 -0.062344316
000180 d0 28 4e 3d 50 1d 2a bd 75 48 c1 3c 77 d1 6b 3d
       0.05033189 -0.04153186 0.02359412 0.057572808
000190 44 04 31 bd c1 c5 8b bc 86 1e 37 bd c7 aa 78 3d
       -0.04321696 -0.01706207 -0.044706844 0.06070974
0001a0 d9 d3 98 bc 79 e0 54 3d 3a ec 4e bd f7 f2 d3 bc
       -0.018655704 0.051971886 -0.050518252 -0.02587269
0001b0 a1 91 b5 3c 59 d1 91 bd ff 12 3c ba bb 83 6c bc
       0.022164168 -0.07120008 -0.00071744615 -0.014435704
0001c0 c5 30 4b 3c b0 ca 0a bd dc c6 77 3d 6b 18 76 bd
       0.012401764 -0.033884704 0.06049238 -0.06008188
0001d0 32 2e 0b bc 8e 09 53 3d 04 8b 88 3c fe 29 97 bd
       -0.008494901 0.051522784 0.01666785 -0.07381056
0001e0 ed cf 2b bd 73 26 6a 3c 70 73 10 3d 94 d7 8e 3d
       -0.04194634 0.014291394 0.03526634 0.06974712
0001f0 fa 6b 8a 3c 6e 1a be bb 32 3c 45 bd ef 04 b9 3c
       0.01689719 -0.0058014905 -0.04815311 0.02258536
000200 b2 ee 80 3d 33 f6 2f 3b 88 b3 2b 3d 07 68 21 bd
       0.062955275 0.0026849627 0.04191926 -0.03940585
000210 86 8c 17 bd 04 2b 14 bd e6 42 6b bd 8c 52 34 3d
       -0.036999248 -0.036173835 -0.057436846 0.044024035
000220 e2 84 0e 3d 1d d9 14 bc cb f1 02 bd 3a b4 af bc
       0.034794696 -0.009084967 -0.031968873 -0.021448243
000230 87 16 42 3b 91 be 80 3d 46 4b 42 3b 5a b8 19 bd
       0.0029615478 0.06286348 0.0029646917 -0.037529327
000240 ed e8 9d 3c ae fe b9 bc af a7 47 bd 77 28 a3 bc
       0.019276107 -0.022704449 -0.0487439 -0.019916756
000250 48 cf 2e bd 9d 1b 3a 3c 5c 97 a0 bc 77 39 4a bd
       -0.042678148 0.011359123 -0.019603424 -0.04937121
000260 4b de 18 bd 43 b3 37 bd ad b3 ba bc 79 db 10 3c
       -0.03732137 -0.04484869 -0.022790754 0.008841389
000270 66 46 80 bd 7f 7d 3c 3d 2b 45 6b 3d f8 00 cb bc
       -0.062634274 0.04601812 0.05743901 -0.024780735
000280 85 54 85 3d 3e b6 44 bd cd 1e 38 bd 03 30 2f 3d
       0.065102614 -0.048025362 -0.04495125 0.042770397
000290 4d 56 a5 bc 52 64 45 bd 65 e4 26 bd e1 c1 8f 3c
       -0.020182753 -0.048191376 -0.040745158 0.017548503
0002a0 40 f8 ef 3c 4d fd bf bc b8 fb 58 bd 80 15 ff 3c
       0.02929318 -0.023436213 -0.052974433 0.031138182
0002b0 0e 18 3d bd 46 52 88 3d 4b 84 99 bb aa 48 0d 3d
       -0.04616552 0.066563174 -0.00468496 0.034493126
0002c0 e2 17 60 bc 3e 36 07 bd 8a 62 87 3d 37 b5 85 bc
       -0.013677569 -0.033010714 0.06610592 -0.016321762
0002d0 55 01 8b 3d 78 e1 e6 3c b8 b1 7c 3d ff 02 a5 bc
       0.067873634 0.028183684 0.061692923 -0.02014303
0002e0 3d 1e 42 3d 61 96 8e 3d 74 83 22 3d 67 57 85 3d
       0.04739212 0.06962276 0.039676145 0.06510811
0002f0 7b 85 67 3c c0 a8 42 bd 6d 0a df bc 4f c6 21 3d
       0.014130945 -0.047524214 -0.027226651 0.039495762
000300 db 2e b6 3b 17 ab f8 3c 78 15 66 3c 82 41 d2 3c
       0.005559785 0.03035502 0.0140432045 0.025666002
000310 b9 f7 8a bc 4c 03 13 bc c1 b1 2a bd 12 d4 c0 bc
       -0.016963826 -0.008972954 -0.041673426 -0.023538623
000320 90 38 41 bd da ee 0e bd c0 a1 8f 3d 72 21 1c 3d
       -0.047173083 -0.034895755 0.07013273 0.038117833
000330 2f 29 6a bd 40 01 96 3d 3a 5a 21 3d 6f a0 5a bd
       -0.057168182 0.07324457 0.039392687 -0.053375658
000340 fb 88 23 bd 50 a8 14 3d ff 17 fb bc 34 de 67 bc
       -0.039925557 0.036293328 -0.03065109 -0.014152098
000350 8a 3f 46 bd 2e 7f 46 3d 45 ec 82 bc 22 4f 7b bc
       -0.04840044 0.04846113 -0.015981803 -0.015338691
000360 88 ec 2b bd 9c 44 da 3c 3a 97 2b 3d 02 68 0c bd
       -0.04197362 0.026644044 0.041892268 -0.034278877
000370 5f b8 0b bd 27 35 e8 3b 2c d8 85 3c 00 b0 38 3d
       -0.034111377 0.0070864144 0.01633843 0.04508972
000380 95 60 96 3d 18 8b c4 bc d6 e1 c2 3c 07 b9 95 bc
       0.0734264 -0.023992106 0.023789328 -0.018276704
000390 c2 51 bc 3c 5a 16 04 bd 29 bf 96 bd 81 2a ba 3c
       0.022988204 -0.03224788 -0.0736068 0.022725346
0003a0 2a e3 59 bd 59 f9 8f bd 10 aa 56 3c 87 d7 d8 3c
       -0.053195156 -0.07029981 0.0131020695 0.026469959
0003b0 3b 6b 6a bd 8c 3b 27 3d 00 d8 78 bd 37 1d 7e bc
       -0.05723117 0.040828273 -0.06075287 -0.015509895
0003c0 7a 5b 32 3d d0 4e 08 bd 6a 58 6f 3d ed 6d 3a bd
       0.04354427 -0.033278286 0.058433928 -0.04551499
0003d0 8d 55 3b 3d 4b 4f c9 3c 5b 7a 8f b7 00 96 c6 3c
       0.045735884 0.024573943 -1.7103905e-05 0.024241447
0003e0 41 57 4e 3c 75 6f 5e 3d b1 8d 8e bd 07 9a f8 bc
       0.012594045 0.054305512 -0.06960619 -0.030346883
0003f0 02 12 93 bd 89 22 6f bd 0d 0e 16 bc ac dd 71 3c
       -0.07181169 -0.058382545 -0.009158623 0.014762323

linear_relu_stack.4.weight f4 [90, 360]
000000 5a b5 23 bd 91 a3 f3 bc 0b 17 b5 3b 8a cd 0c bd
       -0.039967872 -0.02974108 0.0055264286 -0.034375705
000010 ef e7 33 3d e6 79 e3 3c b4 b3 41 bc 3e 45 22 bd
       0.04392236 0.027768087 -0.01182263 -0.039616816
000020 8a c9 3a bd a6 bb 85 bc 56 41 f8 bc f4 c4 0b bd
       -0.04560236 -0.01632483 -0.030304592 -0.034123376
000030 04 25 1e 3d ea 87 67 3c e7 d0 a4 bb 45 5e 7b bc
       0.03860952 0.0141315255 -0.005029786 -0.0153423
000040 13 38 a1 bc 4f 81 b9 bc f9 b0 ff bc 10 b2 b1 bc
       -0.019680059 -0.022644667 -0.031212317 -0.021691352
000050 31 d5 07 bd 76 cc 86 3c 32 e2 26 bd ed d0 2c bc
       -0.0331623 0.016454916 -0.04074306 -0.010547859
000060 32 b7 87 3c 44 c7 0b bd 3a 1d ec 3c a1 0d 0c 3d
       0.016566847 -0.03412558 0.02882253 0.034192685
000070 54 3e 0d ba 4d ac 38 bd 43 91 c2 3c f8 f8 e4 bc
       -0.0005388011 -0.045086194 0.023750907 -0.027950749
000080 72 77 ae bc 76 7a 13 bd a9 7e 1d bd c1 d2 10 3c
       -0.02129719 -0.03600546 -0.03845087 0.00883931
000090 2f 64 61 3c 45 80 07 3d 15 76 d6 3c 65 09 b5 3c
       0.013756796 0.03308131 0.026179353 0.022099206
0000a0 8f e0 f4 bc c6 21 2b bc 2d 6b 3e bd ea 2b f0 bc
       -0.029892234 -0.010445064 -0.04648893 -0.029317815
0000b0 a9 5d ab bc 81 67 42 3b f2 d4 23 bc b6 3b 36 3c
       -0.020918684 0.0029663744 -0.009999501 0.011122635
0000c0 4a 99 27 3d f3 28 f5 bc 8e c7 91 bc 3f c2 e9 3c
       0.040917672 -0.029926753 -0.01779535 0.028535007
0000d0 b2 9f 92 bc d9 17 d0 3c 7b 23 48 bd 3c 34 2b bd
       -0.017898414 0.025401996 -0.04886196 -0.04179786
0000e0 b4 5c f8 3c 98 61 75 3c 89 44 42 3c 0d 9c a6 3c
       0.030317642 0.014976881 0.01185716 0.020338083
0000f0 68 43 9a bc 44 71 4d bc 33 7e b5 3c 36 91 9e 3c
       -0.01883097 -0.012539212 0.022154903 0.019356351
000100 51 58 dc bc 86 12 72 ba 1b 40 18 3d 01 52 3a bd
       -0.026897581 -0.00092343276 0.03717051 -0.04548836
000110 29 12 11 3c 98 d3 33 3d cf 25 45 bd 31 45 8f 3c
       0.008854427 0.043902963 -0.04813176 0.017489048
000120 dd b6 0b bd 63 00 25 bc 28 87 31 bd 49 09 f6 bc
       -0.03410994 -0.010070893 -0.043341786 -0.030033724
000130 51 b9 f8 bc 86 70 d3 3c 9d da 5f 3c cc 03 30 3c
       -0.030361803 0.025810491 0.013662961 0.010743093
000140 d5 29 53 bd 71 55 e0 bb 86 15 2f 3d 3a b0 0d bd
       -0.051553566 -0.006846123 0.042745136 -0.03459189
000150 d9 52 3b bd 77 c4 50 bd 23 54 20 bd 92 ea 77 3c
       -0.045733307 -0.050968613 -0.03914274 0.0151316095
000160 23 1f 8f 3c c2 0c 09 bc 00 95 1a bd 9a 62 48 3d
       0.017470902 -0.008364858 -0.037739754 0.04892216
000170 b4 69 00 bd 26 b4 8f bb d4 be 1a bc 1b 2b a7 bb
       -0.031350806 -0.004385489 -0.009444911 -0.005101574
000180 0a 7b 3e 3d 82 f2 69 3c cd 1b 50 bd 04 a0 0e bd
       0.046504058 0.01427901 -0.050807763 -0.03482057
000190 70 32 33 bd ea 12 07 3d 9c c7 4c bc 8b 26 8e bc
       -0.043749273 0.032977022 -0.012498762 -0.017352363
0001a0 23 28 30 3c 75 85 da bc 14 d0 31 3d fe 82 32 bd
       0.010751757 -0.026674965 0.04341133 -0.043581955
0001b0 58 7a 29 3b 02 fb ad bc 46 68 9d 3c 4f 7d e6 bb
       0.0025860276 -0.021237854 0.01921476 -0.007033981
0001c0 2e ad 85 bc e0 65 80 3c 7c c9 bf bc 20 e3 88 3c
       -0.01631793 0.015673578 -0.023411505 0.016709864
0001d0 f6 e2 50 ba b8 54 bc bc b6 70 e7 bc 96 9a 89 bc
       -0.000796839 -0.022989616 -0.028251987 -0.016797345
0001e0 d8 d8 56 bd c5 ff ff 3c 9f 2d a5 3c 9e be f2 3c
       -0.052452892 0.03124989 0.020163355 0.029631909
0001f0 63 6b 30 bc f0 49 5f 3c 1e 89 60 bc b9 f2 3a bd
       -0.0107677905 0.013628468 -0.013704566 -0.045641635
000200 b6 89 25 bd 35 da 99 bc 08 c3 f2 3c a9 00 51 bc
       -0.040414535 -0.018780807 0.029634014 -0.012756505
000210 a2 7f bb 3b b5 19 d2 bc 07 5f 90 bc bb 34 16 bd
       0.005722002 -0.025647024 -0.017623438 -0.03667138
000220 11 da 6e 3c 97 a4 5b 3c f9 3a 80 b9 8b d8 30 bd
       0.014578358 0.0134059405 -0.00024458 -0.04317526
000230 4b 97 e3 bc 86 df 8f bc 5e dd 14 3d 17 2a e4 3c
       -0.027782103 -0.017562639 0.036343925 0.027852101
000240 93 b7 4b 3c fc b5 23 3d e2 d6 06 bd f0 d9 e8 bb
       0.012433904 0.039968476 -0.032919772 -0.0071060583
000250 05 c6 3f 3d 38 4a 19 bd d3 a9 58 3b a9 d0 68 3c
       0.046819706 -0.037424296 0.0033060207 0.014209905
000260 e6 5f 6a 3c 57 b6 a4 bb fa de da bc bd f8 97 bc
       0.0143050905 -0.0050266194 -0.026717652 -0.018551225
000270 e4 89 b2 bc 10 b5 a1 bb c1 e0 06 bd 93 32 16 bd
       -0.021794267 -0.0049349144 -0.032929186 -0.036669325
000280 05 72 7a bc fb 8a b6 3c cb a8 a4 3c 57 ed ef 3a
       -0.015285973 0.022283068 0.020100018 0.0018304986
000290 a6 d7 50 3d 2a d8 04 3c a7 e5 a9 bc 44 42 65 3c
       0.05098691 0.008108178 -0.02073939 0.01399285
0002a0 ae 48 43 bd 7e 5e 53 bd ab fe 52 bd 5f 32 52 bd
       -0.047676735 -0.051603787 -0.0515124 -0.05131757
0002b0 c3 15 db 3c 15 70 19 3d 97 9a 3d 3c f1 89 3d 3d
       0.026743775 0.037460405 0.011572502 0.04627413
0002c0 15 b1 2f 3d f0 bd 48 bc af 16 fe 3b a6 31 ce bc
       0.042893488 -0.012252316 0.007754169 -0.025170159
0002d0 34 8d 15 bd 27 f7 c1 bc cd dd 7c 3c f7 bb 21 3c
       -0.036511615 -0.023677422 0.015433741 0.0098714745
0002e0 5b 07 ac 3a f5 9c 8b bb ae 13 be bc 88 ba 1e bd
       0.0013124751 -0.004260654 -0.023202743 -0.03875211
0002f0 84 f9 41 bd cc 43 24 bd 99 e3 27 bc ea e2 3d 3d
       -0.047357097 -0.04010372 -0.010247135 0.04635898
000300 3e 23 bb ba 0b c5 87 3c c2 53 3d bd 05 8c 1e bc
       -0.0014277471 0.01657345 -0.046222456 -0.009676938
000310 78 be 84 ba 2a c1 66 3c 30 79 c1 bc c5 7a 61 3c
       -0.0010127565 0.01408414 -0.023617357 0.013762181
000320 87 48 87 bc 77 4c 46 3c 9a 6c 35 3d 36 ac 29 3d
       -0.016514076 0.012103192 0.044293024 0.041424
000330 55 69 6c bc 48 29 4c bc 80 12 93 3a 59 77 d2 3c
       -0.01442941 -0.012461014 0.0011220723 0.025691675
000340 9e cd 0e 39 b2 f8 9c 3c 84 09 48 bd 74 7b 44 bd
       0.00013618774 0.019161556 -0.0488372 -0.047969297
000350 3c 2a 19 3d b8 d2 54 bd 61 20 86 bb 3c 03 c4 3b
       0.037393793 -0.05195877 -0.0040932153 0.005981831
000360 a6 df 3c 3c 85 f7 7c bc ae 29 0c 3c 97 b2 36 3c
       0.011527931 -0.015439873 0.008554859 0.011150978
000370 a5 53 3c 3d 68 31 5d 3c 55 2f c9 3b 88 cb b7 3c
       0.045978207 0.013500549 0.0061396756 0.022435918
000380 16 d8 0c 3d df 55 49 bd 4b 2e 17 bd 2a b6 2c bd
       0.034385763 -0.04915416 -0.036909383 -0.042165913
000390 35 36 32 3d 92 ad 16 3b cd 32 42 bc 07 e2 0d bb
       0.043508727 0.002299164 -0.011852932 -0.0021649615
0003a0 c3 25 43 bd 1d 59 e6 bc 39 a2 d9 3c 5a 3a 03 bd
       -0.047643434 -0.028118664 0.026566612 -0.03203807
0003b0 04 4f 06 3d a2 c7 6d 3c f8 d1 42 bc e2 af 01 3d
       0.0327902 0.014512928 -0.011890881 0.031661876
0003c0 05 68 f9 3b 78 e8 31 bc d6 b0 f4 bc f8 27 42 3d
       0.007611277 -0.0108586475 -0.029869478 0.0474014
0003d0 df 13 03 3d f7 c6 28 3c 5b 26 92 3c 89 aa 9c ba
       0.032001372 0.010301343 0.017840555 -0.0011952679
0003e0 28 b0 8c bc 23 ec 7e 3b b8 5d 79 bc 7d 4e d3 bc
       -0.017173842 0.0038898073 -0.015220098 -0.025794262
0003f0 b8 35 b5 bb a2 57 d4 3c e4 e8 1d 3d 3a 8d 19 3d
       -0.0055300854 0.025920693 0.03855218 0.0374882

linear_relu_stack.4.bias f4 [90]
000000 7c 33 e1 3a e6 0a 2d 3d 69 3f 16 3d 5a d2 19 bd
       0.0017181481 0.04224672 0.036681566 -0.037554123
000010 0a b8 50 3b 1f 83 2a 3d df bd b3 3a 7e d7 cd bc
       0.0031847977 0.041628953 0.0013713202 -0.025127169
000020 21 a3 84 3c 8e 38 2f bb 0a fa 9e bb 9f 96 58 bd
       0.016191067 -0.002673659 -0.0048515843 -0.05287802
000030 b9 de 05 bd 2f 33 29 bd ea ba 8e bc 11 f6 2b bd
       -0.032683108 -0.041308578 -0.017423112 -0.041982714
000040 e0 89 8b 3c e1 7e 6c bc 9b 6c 4b bd 8c d2 96 3c
       0.017033517 -0.014434547 -0.04966412 0.018410943
000050 31 6b 7f 3b 79 d2 22 3d bd a2 98 3b 0d 1d 2a bd
       0.0038973803 0.039751504 0.004658072 -0.04153161
000060 2c 2e ae 3b b6 29 8f bc ba 83 4c 3d 43 07 33 3d
       0.0053155627 -0.017475944 0.04993031 0.043708097
000070 6f cf d0 3c 74 fa 17 3d ab 77 fa ba eb 07 0f bd
       0.025489537 0.037104085 -0.001910915 -0.03491966
000080 54 64 3c 3c 6d 1c 10 bd 0e ce 26 3d d2 1c d5 bc
       0.011498529 -0.03518336 0.040723853 -0.02601472
000090 ee a6 d5 3c 88 94 80 3c a2 19 38 3d 28 59 3c 3d
       0.026080575 0.015695825 0.04494632 0.045983464
0000a0 36 5c 01 3c 41 c9 3e bd fd c6 5e 3b 88 b9 c8 bc
       0.00789552 -0.04657865 0.0033993118 -0.02450253
0000b0 3c 57 bb bc c5 c1 fe 3c bb 0d db bb f3 f6 83 bb
       -0.022868745 0.031098256 -0.0066849864 -0.0040272414
0000c0 dd e7 37 bd be 7a 7f 3c 46 0a 99 bc dd 9b 20 bc
       -0.044898856 0.015593229 -0.018681657 -0.009802786
0000d0 56 d7 00 39 9e 91 21 3d e9 44 8a bb 45 a1 20 3d
       0.0001228725 0.039445512 -0.0042196405 0.0392163
0000e0 ac 2b 04 3d de 71 1b bc 9c fa 91 3b 65 33 19 bd
       0.03226821 -0.009487597 0.004454924 -0.03740253
0000f0 54 c3 d9 3c 45 a8 9f 3b 74 3e c6 3c 07 0b 28 3d
       0.026582398 0.004872354 0.024199702 0.04102614
000100 6c b7 b3 3c 33 e1 48 bd 69 55 8c bc 9a 8a 4c bc
       0.021938048 -0.04904289 -0.01713057 -0.012484217
000110 ec 75 91 bc 32 60 45 3d 94 72 3e bd 55 ef ce bc
       -0.017756425 0.048187442 -0.04649599 -0.025260607
000120 bf b4 32 bc 39 51 62 3c b1 31 50 3d 09 75 20 3d
       -0.010907351 0.01381331 0.05082864 0.039174113
000130 e4 0b 30 3d 51 c9 4f bd 80 94 7c 3c 10 b6 43 3d
       0.04298009 -0.0507291 0.0154162645 0.04778105
000140 80 46 f7 bc ea 13 fe b9 ab a4 41 3d 16 a0 80 bc
       -0.030184984 -0.00048461492 0.04727618 -0.015701335
000150 f8 77 43 bd 31 dc 03 bd 78 11 07 bd 29 1f 4d 3d
       -0.047721833 -0.032192413 -0.032975644 0.050078545
000160 c4 b5 23 3d ae 0d 42 bd
       0.039968267 -0.047376327

linear_relu_stack.6.weight f4 [45, 90]
000000 61 d9 88 bd 02 ab 19 3d e6 49 5f bd 62 fa 87 3d
       -0.06682087 0.0375166 -0.054513834 0.066395536
000010 24 fd 48 bd 2d 4b 97 3d 1d 34 86 3d da a1 3f bd
       -0.04906954 0.073873855 0.065529086 -0.046785213
000020 50 6f 54 bd 63 18 0c bd 7f cb e6 3c a4 35 79 bd
       -0.05186397 -0.034202944 0.028173206 -0.06084217
000030 83 71 b9 bd 5b 2e c3 3d 76 fe 87 3d 8d f6 94 3d
       -0.09054854 0.09530326 0.066403314 0.07273588
000040 60 fb 76 bd f8 ee 94 3d 91 ee c3 b8 d1 cd a0 bd
       -0.060298324 0.07272142 -9.342761e-05 -0.07851756
000050 7c b8 c6 3d 5b 4b 9f 3d 5a de 99 bd 30 13 91 bc
       0.09703156 0.07778045 -0.07513113 -0.017709345
000060 ca 25 bb bc 86 e8 18 3c 8f 88 9e bc 3f 1d 9b 3d
       -0.022845168 0.009332782 -0.019352226 0.075739376
000070 ab 66 96 3d 61 93 62 bd d5 e5 f1 bc f6 78 15 bd
       0.07343801 -0.055316333 -0.029528538 -0.03649231
000080 85 ee 5c 3d 4b 57 26 3d 39 19 a5 bd bc 9d 91 bd
       0.053938407 0.040610593 -0.080614515 -0.071101636
000090 61 3d 26 3d 87 89 c3 bd 3d 6c e8 bc f1 93 3e 3d
       0.04058588 -0.09547716 -0.028371925 0.046527807
0000a0 49 55 c6 bd cb c0 63 3d 15 82 57 3d 6b 16 fe bc
       -0.096842356 0.055603784 0.05261429 -0.03101655
0000b0 98 84 7b 3d f0 74 36 bd 2c 1d f2 3c 90 83 da bc
       0.061405748 -0.044545114 0.029554926 -0.026674062
0000c0 59 5b aa bd 19 9f 8e bd d1 e6 78 bd f3 76 9d bc
       -0.083182044 -0.06963939 -0.060767 -0.019221758
0000d0 80 aa 2a bd dd e0 2b bd 4c 1c 95 bd d2 59 56 3b
       -0.041666508 -0.041962493 -0.07280788 0.0032707346
0000e0 91 1f 84 bc f9 e2 08 3d cd 0e 45 3d 36 54 15 bc
       -0.016128333 0.033419583 0.04810982 -0.009114316
0000f0 74 ad 10 3d e5 a4 30 3d 8c 8b 65 bd fe ec 2f 3d
       0.035321668 0.043126006 -0.056041285 0.042950623
000100 5c 0f 9a bd e0 8f 4b 3d 63 0f d3 bd eb 77 84 3c
       -0.07522461 0.049697757 -0.10305669 0.016170463
000110 f3 eb cf 3c 82 a5 a3 bd 4a 04 e1 bc a0 f0 a5 bd
       0.025381064 -0.079905525 -0.027467865 -0.08102536
000120 af 66 9c 3b 62 c3 89 3c f2 de 18 3d a9 55 9e bd
       0.004772983 0.016816799 0.037321992 -0.07731182
000130 fa 2c 11 3d fb 1b 91 bc 9a 35 d6 bc 0f 5a 30 bc
       0.035443284 -0.017713537 -0.026148606 -0.010763659
000140 94 87 73 3d bb 0c 30 3d dd 04 0f bd 0b f8 8e bc
       0.05945547 0.04298089 -0.034916747 -0.01745226
000150 28 1a 8a 3d ce 24 44 bc 69 1a b8 3d a9 5e 4f 3d
       0.0674327 -0.011971666 0.08989412 0.050627384
000160 39 cf 13 bd 1f fb 3c 3d 0b 43 4b bd 3e 30 31 bf
       -0.036086295 0.046137925 -0.049624484 -0.69214237
000170 ae 26 b4 3d b9 b9 09 bd 68 a5 83 bf 5d 8f 2c bd
       0.0879644 -0.033624385 -1.0284853 -0.04212891
000180 48 1b 17 bf 6a 6f 8f bf 1e d6 95 bf 25 cb 92 bd
       -0.59026 -1.1205876 -1.1705968 -0.07167653
000190 cd 2e 14 bd 3a 85 77 be ef 56 57 be 18 92 58 3d
       -0.036177445 -0.24171916 -0.21029256 0.0528737
0001a0 54 0d 23 3c a4 dc 93 bd ad 98 dc be 7d 63 b0 bd
       0.009951908 -0.07219818 -0.43085232 -0.08612726
0001b0 59 b5 0e c1 b2 ff cf 3c ce e2 c4 bc f0 23 51 be
       -8.919274 0.02539048 -0.02403393 -0.20423865
0001c0 d7 79 ae bd 92 9b 1a be 9d fe 84 be f8 f8 61 bf
       -0.08519333 -0.15098408 -0.25975505 -0.8827052
0001d0 ef 63 2d be bd 21 44 bf 7c a2 c7 3d fd 35 2c c1
       -0.16932653 -0.7661398 0.09747788 -10.763181
0001e0 d8 4d 84 bf 8a 67 ba bc 69 b3 84 c0 d0 ca f7 bc
       -1.0336256 -0.02275445 -4.1469007 -0.030248076
0001f0 63 4d 2c bd 86 b0 1c c1 27 1a 3b bf 6c 70 0b 3c
       -0.04206599 -9.793097 -0.7308678 0.00851069
000200 92 71 97 3d 39 37 87 bd bd dc c2 3c 74 63 1b c1
       0.07394709 -0.0660233 0.023786897 -9.711781
000210 0f f0 a0 3d 41 de f7 bd 78 25 a8 be 14 27 87 c1
       0.078582875 -0.121029384 -0.32841086 -16.894081
000220 45 4c 6a bd db 06 c4 be 6a 4d 4f bd 7c ce 1c bf
       -0.057201643 -0.3828648 -0.050610937 -0.6125257
000230 7d b8 37 c1 6b ee ca 3c ec 35 7f 3d 48 df 68 bc
       -11.482541 0.02477189 0.062307283 -0.014213391
000240 ee 6a c9 c0 20 34 dd c0 c8 14 99 c1 d6 32 64 39
       -6.294303 -6.912613 -19.135147 0.00021762712
000250 97 19 aa 3d c1 46 d6 be 1d 96 28 c1 01 b0 bf bd
       0.08305662 -0.41850856 -10.536649 -0.09359742
000260 ad 2f 88 be a0 70 9c bd 7e 10 84 3c 5f ec e0 3d
       -0.26598874 -0.07638669 0.016121145 0.10982584
000270 fa e9 77 bd 5c 9e b9 3d 41 05 b4 3d 7f 70 81 3d
       -0.06052587 0.09063408 0.087900646 0.06320285
000280 02 6b b0 be da 73 52 be e9 53 49 c1 e7 c6 87 c1
       -0.3445664 -0.20552006 -12.582986 -16.97212
000290 ac 22 a7 bc d9 46 bb bf 5a 2d d3 c0 04 9f 2c bf
       -0.020402275 -1.4630996 -6.599286 -0.6743014
0002a0 e1 7c 94 be 9c 32 a6 c0 f1 a6 c5 3b 1e ff d1 bd
       -0.29001525 -5.193678 0.006031864 -0.10253738
0002b0 85 fc bf be 27 de a0 bd b0 a6 b1 bd 2b 0e de bd
       -0.37497345 -0.07854872 -0.08674371 -0.10842546
0002c0 fa a5 56 bd 4f 13 83 bd c5 58 ad bd 0e 82 c6 3b
       -0.05240438 -0.06400167 -0.08464197 0.006057984
0002d0 2f 43 c3 3d 97 9c 8d bc 04 3a b3 3d 11 5c bf 3d
       0.09534299 -0.017286582 0.087513 0.09343732
0002e0 b0 9a d0 bd 96 81 99 bd 3b 88 11 3d e2 2b 05 bd
       -0.10185754 -0.0749542 0.03553031 -0.032512553
0002f0 d8 6e c4 bd 13 9d 86 3c 21 e2 d2 3d 7c 7a 51 3d
       -0.09591454 0.01643232 0.10297037 0.0511422
000300 df d0 84 3c 22 9e 9d 3c 22 e2 6c bd f8 8b d5 bd
       0.016212879 0.019240443 -0.057832845 -0.104270875
000310 70 51 84 bd b2 22 82 3c 7f 77 62 c1 9f 01 2f bd
       -0.064608455 0.015885685 -14.154174 -0.042726155
000320 68 9a 16 3c 87 ca d4 bc 94 04 56 3d 9d 66 b6 bb
       0.009192087 -0.025975479 0.05225046 -0.0055664317
000330 77 59 55 bd e5 3d 26 3d cd 98 b6 3a 41 c4 94 bd
       -0.052087273 0.04058637 0.0013931036 -0.07263995
000340 8d 6d 2b 3d f1 8f 89 c1 dd 0e b1 bd 57 8a 3b 3d
       0.041852523 -17.195284 -0.08645413 0.045786228
000350 00 f1 cd c0 0b fc 3d 3c e3 3a 93 bd d0 b2 7e c1
       -6.435669 0.011595736 -0.07188966 -15.918655
000360 82 05 a4 3d 8a 12 87 3c 13 b8 10 3d 11 14 6d 3c
       0.08008863 0.016488332 0.035331797 0.014470116
000370 44 a0 41 bd b1 99 76 c1 04 13 f8 3c d6 da e2 3c
       -0.04727198 -15.412522 0.030282505 0.02769224
000380 26 68 d2 3c c4 db d7 c1 e0 be 1c 3d 13 b7 9a 3d
       0.025684427 -26.982307 0.03826797 0.0755445
000390 f6 49 a5 bd b2 e5 bb bc 69 91 92 c1 c7 aa a5 bd
       -0.080707476 -0.022936676 -18.321001 -0.08089214
0003a0 bd ae 65 bd 00 e7 a2 bd 00 47 22 c1 ef 44 31 c1
       -0.056074847 -0.07954216 -10.142334 -11.0793295
0003b0 5b 8e f4 c1 cf ab ba bd d1 dd 82 bd 8f 1a 85 3d
       -30.56951 -0.09114801 -0.06389964 0.06499206
0003c0 42 02 89 c1 6d 61 3e bc 32 b4 f6 3c 38 5e 2b bd
       -17.126102 -0.011619908 0.03011522 -0.0418379
0003d0 c5 8b 87 3d 42 ec 92 bc a2 2d cc bd ce de a5 3c
       0.06618456 -0.017934922 -0.09969641 0.020247843
0003e0 d8 70 65 bd b0 f5 42 3d 42 e0 b6 bd a1 70 33 3d
       -0.05601582 0.047597587 -0.089294925 0.043808583
0003f0 40 a1 a2 c1 1d 7b db c1 de d3 6e bb e9 42 69 3d
       -20.328735 -27.435114 -0.00364422 0.056948576

linear_relu_stack.6.bias f4 [45]
000000 ad c9 54 bd 9e 88 3c bb fe 3b bf bd 06 75 99 bd
       -0.051950146 -0.0028767954 -0.093376145 -0.074930236
000010 26 55 2d bd 6a 52 92 bd 6a da 89 bd 62 38 3a 3c
       -0.042317532 -0.071446255 -0.06731112 0.011365982
000020 26 4b 14 bd f1 67 6f 3c a6 61 2b 3d 33 b1 bf bd
       -0.03620448 0.014612184 0.04184117 -0.0935997
000030 34 6b ca 3d 6e ca 72 3d d0 a0 65 3d f6 6f ae bc
       0.098837286 0.059275083 0.056061566 -0.021293622
000040 19 cf c0 3d ab 89 bf 3d 0f 89 18 bd 76 15 b4 3d
       0.09414501 0.0935243 -0.037240084 0.08793156
000050 fe 8b 9d bc f4 9b 61 bd e7 cb c8 bd 0e 01 e2 3c
       -0.019231793 -0.05508037 -0.09804516 0.027588394
000060 23 29 bf bd 3c 44 57 bd 9b 88 5d bd ca ba 71 3d
       -0.09334018 -0.052555308 -0.054085355 0.059016027
000070 97 84 c5 3d da 13 c5 bd 21 0a 0b 3c af ec d6 bd
       0.0964443 -0.09622927 0.008486302 -0.104943626
000080 9c b1 7a 3d 8c 8e c0 3d 31 de b7 3c 14 43 ad 3c
       0.061204538 0.09402189 0.022444816 0.02115015
000090 4d 85 35 3b b4 0f c2 bc d2 c8 a7 3c 7e 00 d0 3d
       0.0027697862 -0.023689128 0.0204815 0.10156344
0000a0 43 7b d5 bd d0 e0 d4 bc 8f 2b 38 bd a1 68 78 bc
       -0.10423901 -0.025986105 -0.044963416 -0.015161664
0000b0 8e a0 2d 3c
       0.010597361
