Домашнее задание 1/torch_model/lbad_linear_model.pth (torch, 369419 bytes, 25 tensors)

lbad1.0.weight f4 [120, 90]
000000 14 be ce 3b 0b 3b 0b be aa b7 b8 bd 71 55 80 3c
       0.00630928 -0.13596742 -0.09019406 0.015665742
000010 88 9e 14 3e 15 7b 94 ba 46 e9 95 bc 03 4d 91 3d
       0.145136 -0.0011328185 -0.01829971 0.07094767
000020 36 2d 2a 3d 35 03 f2 bc 1b b7 8a 3d 94 60 af bd
       0.041547023 -0.029542545 0.06773206 -0.08563343
000030 f8 5d a5 bd a3 3d 78 be 15 f6 27 bf 9a 52 49 bf
       -0.08074564 -0.24242263 -0.65609866 -0.78641665
000040 33 8a f5 bd b2 2f ff be 7a e9 0a 3e 99 20 a8 bd
       -0.1198925 -0.49841076 0.13565627 -0.082093425
000050 ac 26 f6 3d 01 94 fb bc 17 7d 21 bd f9 50 b5 3e
       0.12019095 -0.030710222 -0.039425936 0.3541334
000060 81 3b e9 3d e7 22 ef bd b0 58 5a 3e de 18 a2 bd
       0.113883026 -0.11676579 0.21322894 -0.07914899
000070 6c f4 31 be 5c d6 2c be 09 fd 17 3e 19 05 26 be
       -0.17378396 -0.16878647 0.14842619 -0.16212882
000080 28 6c e4 3d 5b 94 9a bd 0c a3 01 bd 65 0d ad bd
       0.11153442 -0.07547828 -0.031649634 -0.084498204
000090 80 4c ca 3d 04 c5 5d 3d 57 88 8c 3e c4 8d a7 be
       0.098778725 0.054142967 0.2744777 -0.32725346
0000a0 06 da f7 bd c0 00 71 ba fe cc 32 3d d5 88 59 bd
       -0.121021315 -0.0009193532 0.043652527 -0.05310901
0000b0 34 dd bc 3b 8a 73 15 bd 65 71 3d 3f 2a f5 61 be
       0.005763674 -0.03648714 0.7400115 -0.22066179
0000c0 cd ad d7 3d bf 23 ea 3c bf be 05 3e 0e c8 c0 bd
       0.10531197 0.028581498 0.13061045 -0.094131574
0000d0 59 b9 92 bd 79 49 fd bd 4f 1f 9f bd 2c f5 c9 3e
       -0.071642585 -0.123675294 -0.077696435 0.39444864
0000e0 86 73 26 be f5 90 e0 bd 43 f1 14 be f0 89 36 be
       -0.16255006 -0.10965148 -0.14545159 -0.17826056
0000f0 1f 80 5a 3c 24 57 12 be 71 06 92 3d bf a4 02 3e
       0.0133362105 -0.14291054 0.07130135 0.12758158
000100 1a 26 38 3d 6b 77 19 bd fb f7 5a bd 95 36 80 bd
       0.04495821 -0.0374674 -0.05345915 -0.06260411
000110 1a 3b 61 bd 6a e5 92 bc 9f 7c 3c 3d 92 49 a5 bd
       -0.054988004 -0.017931659 0.046017285 -0.08070673
000120 9d 49 35 3e a4 10 b5 3c 66 66 e9 bc 9a c9 5e 3d
       0.17703862 0.022102661 -0.02849121 0.05439148
000130 f0 f2 bc 3c a0 cc 64 be 9f 9a 10 3d f4 2f 04 be
       0.02306506 -0.22343683 0.03530371 -0.12908918
000140 ca 73 c6 bd 69 f8 1e 3e 73 8b 47 bd fb 39 a9 3d
       -0.09690054 0.15524448 -0.048716974 0.08263012
000150 08 93 bf bd ff 63 e7 bd 2f e1 84 3e 07 b1 98 3d
       -0.09354216 -0.112983696 0.2595305 0.0745564
000160 7e c1 29 3e 42 c0 84 3c b5 b6 7b 3d 35 0d a5 be
       0.16577718 0.016204957 0.06145354 -0.3223664
000170 87 9d 89 be 7e 83 2b be ac c6 04 3e 78 42 d6 bd
       -0.26877996 -0.16749379 0.12966412 -0.10461897
000180 24 18 84 3c 71 ca 18 3d 4a 23 6a bd fb e7 85 bd
       0.016124792 0.03730244 -0.05716256 -0.065383874
000190 2e 53 24 ba c0 e6 b3 bc 43 2a 93 bc a7 e6 0b be
       -0.0006268498 -0.021960616 -0.017964488 -0.13662206
0001a0 2d 58 cb be 38 8a 18 3f f8 fa 76 be b0 66 73 bd
       -0.3971571 0.59585905 -0.24119174 -0.059424102
0001b0 07 16 61 3e b9 9c 84 3f 81 a5 6c be cf 46 26 3e
       0.21981059 1.0360328 -0.2311001 0.16237949
0001c0 ae 71 c1 3e cf cd a3 bd db 9c fe 3e f0 71 f9 bd
       0.37782043 -0.07998239 0.49729046 -0.12179935
0001d0 a4 65 01 3f 58 10 65 3e 8c 0f 81 3e 47 92 a0 be
       0.50545716 0.22369516 0.25207174 -0.313616
0001e0 95 f7 fa be f7 4d 7a bd 33 84 a7 be 73 3a 81 3d
       -0.49017015 -0.06110951 -0.32718047 0.063099764
0001f0 10 92 0f 3d cb 40 65 be b8 ca 58 bf 33 2e 8e 3f
       0.035051405 -0.22387998 -0.84684324 1.1107849
000200 d0 ec 46 3f 97 22 24 bf b0 6e 14 bf fb 93 39 3e
       0.777051 -0.6411528 -0.57981396 0.18122856
000210 8d 4b b0 be 90 e3 1e bd 62 1b 03 3d a4 b9 0f be
       -0.3443264 -0.03879124 0.032008536 -0.1403566
000220 ad a4 24 3f f4 37 b8 bd cd b4 07 be 90 12 e8 bd
       0.64313775 -0.08995047 -0.13252564 -0.113316655
000230 25 58 2f bd 83 3a 91 bd d8 3f 90 3d b0 8e bf bd
       -0.04280867 -0.07091238 0.07043427 -0.09353387
000240 f4 5c 90 3d 3d a7 e9 3e a6 7a 6e bf 97 93 a2 bd
       0.070489794 0.45635405 -0.93155897 -0.07938307
000250 fc 7e d8 be a5 87 af be 10 4e 34 be 9a d1 61 be
       -0.4228438 -0.34283176 -0.17607903 -0.22052613
000260 5e 63 57 be 2a d7 1e bd 0f ac ea be c7 99 96 bd
       -0.21034 -0.038779415 -0.45834395 -0.073535495
000270 9c aa 88 bd a4 c0 32 3e 77 4c b4 be 52 bf 51 3d
       -0.06673166 0.17456299 -0.35214588 0.051207848
000280 63 71 43 3e 6d 6e a6 be bc 7e 8b 3e 5d ce 2c 3e
       0.19086222 -0.32506123 0.27245128 0.16875596
000290 85 89 67 3e a2 cf d9 3d 57 b5 77 be 1b 6b d2 be
       0.22611053 0.10635306 -0.2419027 -0.4109734
0002a0 f8 21 f5 bd f9 8b 3d be 6c 8d e7 3b 24 4c c6 3e
       -0.1196937 -0.18510427 0.0070664193 0.38729966
0002b0 0f e6 ab 3e c2 60 d5 3e 94 73 b7 3d 46 af 81 be
       0.33573958 0.41675383 0.08957592 -0.25329036
0002c0 ab 3c c9 3e 46 ec 01 be fb a4 84 3e 7d 6c 1d bd
       0.39304098 -0.12687787 0.2590712 -0.03843354
0002d0 ac 4e 8a 3d 57 60 de 3c db b7 a8 3d f6 9e d0 bd
       0.06753287 0.027145548 0.08238193 -0.101865694
0002e0 ae 09 87 3c c9 01 84 3d 8c d7 ca 3c 18 66 a1 3d
       0.016484108 0.06445653 0.024760984 0.07880801
0002f0 6f 63 c3 3d 61 74 b5 3d 82 7a 6f 3d 48 56 19 3d
       0.0954045 0.08860088 0.058466442 0.0374358
000300 81 bc aa 3d cf 48 12 3d bc 2d 1a bf 7d 2c ee be
       0.083367355 0.035713967 -0.60226035 -0.46518317
000310 0d f5 4d be a2 58 aa be c7 fc c4 bc f4 62 d0 bc
       -0.2011301 -0.33270746 -0.024046315 -0.02543781
000320 9f b4 4d be 38 2a 93 bd 3e ee 34 3c 2b 67 17 be
       -0.20088433 -0.07185787 0.0110431295 -0.14785449
000330 cd 07 74 3d 27 76 30 3e 08 eb 66 3e 8d 0f 03 3d
       0.059577752 0.17232572 0.22550595 0.031997252
000340 e2 8b 94 bd 2b b3 3c be d1 34 18 3d e5 bd ea bd
       -0.07253243 -0.18427722 0.037159745 -0.11462001
000350 e0 2e 9a 3d af 1e f0 bd 27 8b e1 3b 61 71 e7 3d
       0.07528472 -0.117246024 0.0068830433 0.11300922
000360 0a 61 fb 3d 15 e5 a9 bd eb 52 71 bd 71 6d 02 be
       0.12274368 -0.08295647 -0.058916967 -0.12737061
000370 aa 12 6e 3b 2d 41 91 bd 5c 76 c4 bc 6b de 12 bc
       0.0036327043 -0.070925094 -0.02398222 -0.008964161
000380 36 b9 87 bd 05 33 56 bd 2a fe 87 3e 12 91 c7 bc
       -0.06627123 -0.05229475 0.265611 -0.024361167
000390 1c 1e 73 3d 6b 90 83 3d 4d 1a f6 b9 ff 94 fc 3c
       0.059354886 0.0642403 -0.00046940372 0.030832766
0003a0 03 06 03 3b dc d7 bd bc f1 e3 e1 bd 10 d7 fd 3c
       0.0019992597 -0.023174219 -0.110298045 0.030986339
0003b0 2f 64 b7 3d 5c 70 25 bd 10 92 49 be 28 c3 18 be
       0.089546554 -0.040390357 -0.19684625 -0.14918196
0003c0 bc 65 83 3d f8 c0 08 3d 38 8c 85 bd bb e4 a4 bb
       0.06415889 0.033387154 -0.06520885 -0.0050321496
0003d0 5a a7 a0 3c 82 d5 a9 3d 9d 92 9c bd c8 e5 d9 3d
       0.01961105 0.082926765 -0.07645152 0.106395304
0003e0 15 62 ad 3d 5d 47 c7 3d d9 ce 61 bd 1f ff bd bd
       0.08465973 0.09730408 -0.055128906 -0.09277176
0003f0 2e ba ac 3d 2f 72 c1 3d b4 2f c3 3d eb 16 c1 3d
       0.084339485 0.09445607 0.09530583 0.094281994

lbad1.0.bias f4 [120]
000000 3d 4d d1 3d 46 e8 7f 3d f1 a7 1d 3a 36 7b ad bc
       0.1021981 0.062477373 0.00060141 -0.021176916
000010 07 96 c5 3d 10 4f 43 bd 1c 43 af bc a7 df 10 bd
       0.09647756 -0.04768282 -0.021394305 -0.03536954
000020 11 8a 89 bb f9 41 14 bc 35 ff 1a 3b 47 5e 8c bc
       -0.004197367 -0.009048932 0.002365065 -0.017134799
000030 83 0d 0a bd 33 d4 d4 bd 48 1a fb bc 9d c8 dd 3c
       -0.033704292 -0.10392036 -0.03065218 0.027073199
000040 60 9c c1 3d 1b 82 e6 3c d6 ad bd 3d b1 7e 4a bc
       0.09453654 0.028138211 0.09261672 -0.012359307
000050 06 aa d4 3d 9b 9d 95 3d 12 c1 6b bd a6 78 77 bb
       0.10383992 0.073054515 -0.057557173 -0.003776112
000060 ee a7 53 3d 91 14 a8 bd 3f c6 ba bd 88 b3 94 3d
       0.051673822 -0.08207048 -0.09119844 0.07260805
000070 98 fd b8 bd 39 ff 94 bd ec 4a 47 3d 02 f5 3d 3d
       -0.09032744 -0.07275242 0.048655435 0.046376236
000080 78 26 db bc f2 59 fd bc 58 09 2d bc f3 8c 29 bc
       -0.026751742 -0.030926678 -0.01056131 -0.010348546
000090 83 05 0a 3d 1a b1 12 3b 82 23 b6 3d 74 be 25 3d
       0.033696663 0.0022383393 0.08893491 0.040464833
0000a0 72 ae 62 bd 5e c6 af bc 74 9d ba 3c f1 06 b7 3c
       -0.055342145 -0.021456894 0.022780158 0.022342177
0000b0 54 3c d2 3d 88 b0 c8 bd c8 ce a0 3d c2 a7 9a 3d
       0.10265413 -0.09799296 0.078519404 0.075515285
0000c0 35 23 52 3d 4b 44 4e bd 81 ea bb 3d 7a 10 d4 bd
       0.051303107 -0.050358098 0.091755874 -0.10354705
0000d0 9f 00 80 bd 1e bf 89 3d 81 17 ca 3d 33 5a 5a bd
       -0.062501185 0.06725906 0.09867764 -0.053308677
0000e0 9a 48 4b bc 54 1f 9d bc 9a 5c 37 3d b5 9c 8e 3a
       -0.012407446 -0.019179977 0.044766046 0.0010880443
0000f0 d5 f4 dd bc d4 ca 90 3d 27 65 54 bd 5c 1f b4 bd
       -0.027094284 0.070699364 -0.05185428 -0.08795044
000100 e8 eb bf bd 7b 1c 21 3d ad 2c ac 3d 7d ad 52 bd
       -0.093711674 0.0393338 0.08406959 -0.051434983
000110 a0 08 a0 3d 85 de af bd ec 9d a8 bd 11 50 21 3d
       0.07814145 -0.08587364 -0.08233246 0.039382998
000120 eb 7c 7d bd 68 0f 10 bd 0e a4 8a bd 27 a7 95 bc
       -0.06188671 -0.035170943 -0.06769572 -0.018268181
000130 88 89 aa bd e2 f3 e3 3c 7c d4 09 3b a2 6e 8b 3d
       -0.08327013 0.027826253 0.0021031192 0.06808211
000140 4a ad 5a bd 88 77 9d bc bf 6b 46 3d eb 32 47 3d
       -0.053387918 -0.019222036 0.0484426 0.048632544
000150 13 19 ce bd 1c e7 83 bd 9c 01 6d bd fe 0b 6b bd
       -0.10063376 -0.06440565 -0.057862863 -0.057384484
000160 cf a0 03 bb 76 76 d0 3d 97 51 9b bd ad 91 93 bd
       -0.0020084863 0.10178845 -0.075839214 -0.0720552
000170 5c 12 a9 bc 71 b9 34 b8 c8 11 fa bb 27 ca 28 bd
       -0.020638637 -4.308805e-05 -0.007631514 -0.041208412
000180 46 19 32 3d 00 51 0b bd 94 52 ca 3c 27 fb 84 3d
       0.043481134 -0.034012794 0.02469758 0.06493216
000190 7b 80 14 bc 22 14 99 bd b1 2f 5e bd 95 58 d6 3d
       -0.009063835 -0.07474543 -0.0542447 0.104661144
0001a0 c3 18 d3 bd bd 66 cc 3c 79 44 b9 3b 48 fd 20 bc
       -0.10307457 0.024951333 0.0056539145 -0.009826012
0001b0 f1 66 1d bd ce 17 bb bc d4 83 11 3d 0e 9e e3 bc
       -0.03842825 -0.0228385 0.03552611 -0.027785327
0001c0 74 d3 68 bb 89 9c 30 bd b8 61 29 bd ea a9 b3 3d
       -0.0035526427 -0.043118034 -0.041352957 0.08772643
0001d0 7e be a5 3d 85 52 1c bc 59 88 cd bc f9 9d 2d 3c
       0.08092974 -0.009541159 -0.02508943 0.010596746

lbad1.1.weight f4 [120]
000000 5a ba 5f 3f a4 8e 50 40 df ee 15 3f 75 59 d7 3d
       0.87393725 3.258706 0.58567613 0.105151094
000010 91 81 52 3f 9d 99 80 3f f6 79 87 3f 4a 73 d1 40
       0.8222895 1.0046879 1.0584095 6.5453234
000020 0a d0 2e 40 48 fb 00 3f 3b f8 4c 3e 99 9a 3b 3f
       2.7314477 0.50383425 0.20016567 0.7328277
000030 ff 84 49 3f 93 9b 32 bf 2c 69 7e 3e 32 4e 8a 40
       0.7871856 -0.6976864 0.24844807 4.3220453
000040 cb 8b b6 3e c9 b8 b7 3e 99 7b d9 3e ee a8 3d 3f
       0.3565353 0.35883167 0.4247711 0.7408589
000050 d1 88 f9 3e 0f df 63 3e 7f 42 d6 3e 16 49 d4 3f
       0.48737195 0.22253059 0.41847607 1.6584804
000060 c5 06 cb 3e ed 42 4b 3f 09 9d dc 3e f8 bb e6 3d
       0.39653602 0.79398996 0.43088558 0.11266321
000070 cc eb f5 3e 6f 5a 95 3e 33 ed e9 3e f4 f0 3e 3f
       0.4803146 0.29170558 0.4568878 0.74586415
000080 e5 00 b0 3e 25 eb 29 3f c8 e8 a5 3e 09 78 0f 41
       0.34375682 0.6637443 0.3240416 8.966805
000090 67 fa e9 3f 36 b9 11 3f 03 de 86 40 a7 84 19 3e
       1.8279542 0.56923234 4.214601 0.14992009
0000a0 56 62 1b 3f 29 69 89 3f ab 33 10 3f c8 27 ce 40
       0.60696924 1.0735217 0.5632884 6.442356
0000b0 b0 6c 25 3e a3 5f 3e 3e 93 87 ad 3e 7a f1 24 40
       0.16154742 0.1859117 0.33892497 2.5772386
0000c0 76 61 f0 3d 09 06 01 3f bc 22 ce 40 e2 a5 2b 3f
       0.11737339 0.50399834 6.44174 0.6704999
0000d0 f1 3f 0b 3f 6e 28 28 3f fa 15 91 3f 88 33 f7 3e
       0.5439444 0.6568669 1.1334832 0.48281503
0000e0 a9 69 c3 3e 79 98 4a 3f 00 0a 01 3f f0 9c 68 3f
       0.3816655 0.79138905 0.50405884 0.9086447
0000f0 a1 f3 4c 3f eb 4f 43 3f 5d 1a 3c bf 76 60 c9 3f
       0.8005925 0.7629382 -0.7347773 1.5732563
000100 45 de e4 3f 76 da 3d 3f 4e a7 8c 3f 1b 25 5b 3f
       1.7880331 0.7416147 1.0988557 0.85603493
000110 eb 97 64 3f 59 27 9f 3d e7 20 c3 3e 22 f3 6e 3f
       0.8929431 0.07771177 0.3811104 0.9333974
000120 35 85 39 3f f9 2e 1a 40 4a 22 db 3e 0f 37 8c 3d
       0.7246888 2.409117 0.42799598 0.06846439
000130 8d d1 a4 3e da 64 b2 3e 5d fc 1b 3e 51 7c 78 3e
       0.32191125 0.3484257 0.15232988 0.24266173
000140 bc 12 01 3f 9d 9e 82 3f d0 25 a7 3e 8e 75 2a 3f
       0.5041921 1.0204655 0.32646036 0.66585624
000150 b5 da 46 3f 53 b6 28 3f 2a b9 3a 3f 98 bc cd 3d
       0.7767747 0.65903205 0.7293879 0.10045737
000160 3c 59 d2 3e 49 d9 84 3f 10 c1 9d 40 fe 1b 2a 3f
       0.41083705 1.037881 4.929817 0.6644896
000170 2d 90 10 40 7f 2f 63 3f e6 84 85 3e d6 0f 91 3f
       2.2587998 0.8874435 0.26077956 1.1332958
000180 40 f1 f4 3e 64 a6 df 3e 43 a4 ca 3e fe 62 0d 3f
       0.4784031 0.43681633 0.39578447 0.55229175
000190 fd eb 04 3f ed d4 94 3e 6c b4 da 3e c9 bd e6 3e
       0.5192259 0.290687 0.42715776 0.4506667
0001a0 7a ce 06 40 16 8e 27 3f 15 3a 84 3f 1c b0 92 c0
       2.1063523 0.6545118 1.0330225 -4.5839977
0001b0 41 ed 1d 3f 9a 02 d3 3e 36 41 09 be e7 73 05 3f
       0.61690146 0.41212922 -0.13403782 0.5212998
0001c0 f4 b8 e8 3e ff c8 62 3e 3f ac fb 3e 5b 52 1d 40
       0.45453608 0.22146986 0.4915485 2.4581516
0001d0 98 3d 07 3f c2 0f 30 3f a5 14 0a 3e 41 eb 81 bd
       0.5282836 0.68774045 0.13484438 -0.06343699

lbad1.1.bias f4 [120]
000000 e5 b3 d7 be 08 3e f5 3f 53 31 e1 be 5c 21 d9 be
       -0.42129436 1.9159555 -0.43982944 -0.42408264
000010 81 68 86 bf c4 cf 98 3f 5e bc 17 be 80 01 90 3e
       -1.0500642 1.1938405 -0.1481795 0.28126144
000020 02 42 ce 3f 15 27 9e be 7f a8 45 bf dc 39 a1 bf
       1.6113894 -0.30889192 -0.7721023 -1.2595782
000030 c8 85 f6 3e 52 72 1f 3f a8 28 3f bf 11 32 7a 3f
       0.48148942 0.62283814 -0.7467141 0.97732645
000040 5b 8f 05 bf b0 96 3b 3f 48 4f de be dc cf 4d bf
       -0.5217187 0.73276806 -0.43419862 -0.80395293
000050 f8 97 0c be 67 bc 45 bf 79 6b 23 bf 27 57 5c bd
       -0.13729846 -0.77240604 -0.63835865 -0.053794052
000060 b7 e7 37 bf 2a 90 0c 3e 42 fb 35 bf ff 68 a6 be
       -0.71837944 0.13726869 -0.71086514 -0.3250198
000070 73 08 4a bf 56 08 99 be b1 20 f3 be be fe a5 3e
       -0.7891914 -0.29889172 -0.4748588 0.32420915
000080 d6 03 6c bf 9a 39 1b be ec 66 1c bf ba a0 72 40
       -0.92193353 -0.15158692 -0.61094546 3.79106
000090 91 43 be 3e 74 92 35 bf ba 9c f9 3f 37 88 1d bf
       0.37160924 -0.70926595 1.9500954 -0.6153597
0000a0 8f 8a 62 bf ff 3f 5c 3e ce 41 20 bf eb 68 37 40
       -0.88492674 0.21508788 -0.6260041 2.8657787
0000b0 0d 25 24 bf 57 83 1b bf 0b 43 22 bf 75 5b 89 3f
       -0.64119035 -0.60747284 -0.6338355 1.0731035
0000c0 94 07 01 bf 71 1f 49 be 7c e9 ae 3d 08 96 21 bf
       -0.5040219 -0.196409 0.08540627 -0.63119555
0000d0 a5 9d e7 be 44 63 ab be e8 18 b4 be cf 16 17 bf
       -0.4523746 -0.3347417 -0.35175252 -0.5901918
0000e0 1a cc 30 bf 8c 1a 50 3e 71 6a e3 be 0d f4 f7 be
       -0.69061434 0.20322627 -0.44417146 -0.48428383
0000f0 b4 b8 39 bf 61 d2 74 bf 8b ed c3 3e dc 3b 9f be
       -0.7254746 -0.9563351 0.38267168 -0.31100357
000100 60 44 31 bf df b4 34 bf 8e 0a ad be c9 76 84 bf
       -0.69244957 -0.7058849 -0.33797115 -1.034875
000110 ec 82 0b 3f eb 34 99 be b4 3c e4 be 0c 43 b9 bd
       0.54496646 -0.29923186 -0.44577563 -0.09045991
000120 d3 d4 4d bf fd 63 09 be 17 4a 21 bf 6f 3b 8d be
       -0.8040287 -0.13417049 -0.6300368 -0.27584407
000130 3d 3c 1c bf 89 60 a4 bf 53 29 17 bf de ef b1 3e
       -0.61029416 -1.284196 -0.5904743 0.34753317
000140 df c2 3f bf 22 1c 02 bf e9 ac 08 bf ea 26 9b bf
       -0.74906725 -0.5082418 -0.5338884 -1.2121251
000150 6b 33 74 bf 0d 5d 16 be ee 04 02 bf cc 13 70 be
       -0.9539096 -0.14683934 -0.5078877 -0.23445052
000160 06 e5 9a bf 6e 8a b8 be 0f a9 39 bf 08 45 b0 be
       -1.2101142 -0.36043113 -0.7252359 -0.34427667
000170 cd 00 32 40 2c 31 f7 be b1 c2 85 bf fc 7c 23 bf
       2.7812989 -0.48279703 -1.045004 -0.63862586
000180 00 0a 41 bf 73 30 ee be 33 8b 03 bf cb 1e 90 bf
       -0.75405884 -0.4652134 -0.51384276 -1.1259397
000190 f3 b8 0a bf 9d 74 22 bf 2a 8c 47 bf c6 5e 00 bf
       -0.5418846 -0.6345919 -0.7794825 -0.5014461
0001a0 d3 de 1f bf 8c 62 55 3d f0 42 df 3e c3 f4 1c 40
       -0.6244938 0.052095935 0.43605757 2.452439
0001b0 f3 19 0d bf 05 f4 e8 be ca 20 0b 3f fc ef 87 bf
       -0.5511772 -0.45498672 0.5434691 -1.0620112
0001c0 3f 35 08 bf e1 f7 1f bf fc 83 72 bf 5b 43 e7 3e
       -0.5320625 -0.6248761 -0.9473264 0.45168576
0001d0 03 86 40 bf a6 32 15 bd 09 86 11 bf 77 3b cc 3f
       -0.75204486 -0.036425255 -0.56845146 1.5955647

lbad1.1.running_mean f4 [120]
000000 b5 d7 60 c5 df 5d d4 43 ec a6 1a c5 d5 b1 44 45
       -3597.4817 424.73337 -2474.4326 3147.1145
000010 4b d3 ea 45 55 13 49 c5 27 19 ff 44 dd ac be c6
       7514.4116 -3217.2083 2040.786 -24406.432
000020 83 14 3c c5 6c c8 03 c5 3a 04 c6 44 7c a7 0f 46
       -3009.282 -2108.5264 1584.1321 9193.871
000030 a0 5c 49 46 94 e9 85 45 c0 0d f0 44 28 dc 7d c5
       12887.156 4285.1973 1920.4297 -4061.7598
000040 3b 5a 26 c5 49 f7 ab c5 0c 77 4a c5 98 57 19 c5
       -2661.6394 -5502.9106 -3239.4404 -2453.4746
000050 cf 6b c9 c4 2a 09 ea c4 fc c6 79 c5 d5 79 12 c6
       -1611.369 -1872.2864 -3996.4365 -9374.458
000060 5c 3c 13 c5 93 1b 14 c5 eb 34 92 45 9f f7 46 c3
       -2355.7725 -2369.7234 4678.6147 -198.96727
000070 ea 26 08 c5 81 59 23 45 96 82 75 c4 c6 02 ae 43
       -2178.4321 2613.594 -982.0404 348.02167
000080 d0 d1 ae 45 7d 38 6b c5 a7 34 0d c5 76 36 a1 44
       5594.2266 -3763.5305 -2259.2908 1289.7019
000090 cd 1d e4 c4 15 07 e2 c4 7b 5a a4 c4 87 31 24 45
       -1824.9313 -1808.2213 -1314.8275 2627.0955
0000a0 89 40 a6 c5 6b a7 18 c5 e1 15 16 c4 ac a4 30 43
       -5320.067 -2442.4636 -600.34186 176.64325
0000b0 89 b5 e8 44 39 19 ee 44 8e 14 1c c5 d2 ec 01 44
       1861.673 1904.7882 -2497.2847 519.7003
0000c0 ef 3a 10 45 1f 97 18 45 f7 08 95 c6 51 7f b4 c4
       2307.6833 2441.445 -19076.482 -1443.9786
0000d0 01 89 06 c5 58 50 52 44 17 d4 35 c4 f2 60 fa c4
       -2152.5627 841.2554 -727.3139 -2003.0295
0000e0 22 7d 16 c5 15 c9 b4 c5 58 c1 d9 44 3c 02 80 c5
       -2407.8208 -5785.1353 1742.042 -4096.2793
0000f0 82 74 8f c5 14 2d 6c c5 4d 53 06 c5 b6 7e 81 45
       -4590.5635 -3778.8174 -2149.2063 4143.839
000100 50 dc 34 c6 47 8a bd c5 a4 ff 66 c5 69 31 19 46
       -11575.078 -6065.2847 -3695.9775 9804.353
000110 2b 71 9f bd 72 4e 84 45 91 8d 31 c5 c3 ee 8d c5
       -0.07785257 4233.8057 -2840.848 -4541.845
000120 a6 f9 df c2 1b d3 00 45 bb 29 86 44 4f fc ae 45
       -111.987595 2061.194 1073.3041 5599.5386
000130 49 bb 14 c5 a7 cf ad 45 15 8c 0f 45 23 fb 38 c5
       -2379.7053 5561.9565 2296.7551 -2959.696
000140 b7 04 be 45 c7 71 52 44 eb 98 1b 45 70 d1 e3 44
       6080.5894 841.7778 2489.5574 1822.5449
000150 36 90 93 46 33 52 3d c5 d0 d7 50 c4 1f cf eb 44
       18888.105 -3029.1375 -835.3721 1886.4725
000160 e1 2c 0d c5 42 dd 5f c5 19 77 57 45 a6 34 ba c4
       -2258.805 -3581.8286 3447.4436 -1489.6453
000170 3f 49 db 46 a4 0a d0 c2 3b 96 e2 45 db 25 75 c5
       28068.623 -104.02078 7250.779 -3922.366
000180 88 f8 9f c5 6a c3 12 45 5a a0 29 c5 c0 9a a1 45
       -5119.0664 2348.2134 -2714.022 5171.3438
000190 8a e0 23 c5 15 4c c0 c4 81 7b 00 c4 ba 48 5a c4
       -2622.0337 -1538.3776 -513.92975 -873.13635
0001a0 55 00 dc c5 0f 8f 4e c5 6c 5d 04 c6 23 c5 18 c6
       -7040.0415 -3304.9412 -8471.355 -9777.284
0001b0 6b be 90 44 52 49 11 c5 01 53 8f 45 12 93 d0 c5
       1157.9506 -2324.5825 4586.3755 -6674.384
0001c0 10 4e 6d 45 94 13 9d 44 df 42 38 45 7b 03 91 c4
       3796.879 1256.6118 2948.1794 -1160.1088
0001d0 e9 68 1e 45 52 14 d5 44 00 51 33 45 72 53 8a c5
       2534.557 1704.635 2869.0625 -4426.4307

lbad1.1.running_var f4 [120]
000000 c3 9b 84 4a 7f 78 e4 49 ec 35 e8 49 c8 01 43 4a
       4.3453135e+06 1.8716319e+06 1.9022695e+06 3.194994e+06
000010 45 8c 8d 4b 73 f7 81 4a 55 c4 95 4a 63 50 65 4d
       1.855297e+07 4.2587455e+06 4.9075625e+06 2.4045317e+08
000020 d6 32 80 4a ca d0 cb 49 ff 4b 0e 4a d1 aa bd 4b
       4.200811e+06 1.6696572e+06 2.3313918e+06 2.4860066e+07
000030 bc 39 3b 4c 5e a3 b3 4a 7e 43 02 4a dc 14 2a 4c
       4.908005e+07 5.886383e+06 2.1342395e+06 4.458584e+07
000040 38 39 10 4a 33 87 21 4b 3c 93 55 4a 01 b5 19 4a
       2.362958e+06 1.0585907e+07 3.499215e+06 2.5183362e+06
000050 a7 6d 25 4a ec fa a0 4a 4a a8 9f 4a c5 3d 0c 4c
       2.7103778e+06 5.274998e+06 5.231653e+06 3.6763412e+07
000060 07 25 5a 4a 88 43 0f 4a d0 b2 d7 4a de fa 45 4a
       3.5740818e+06 2.347234e+06 7.068008e+06 3.2437035e+06
000070 6b 11 1a 4a be b4 25 4a ce 46 0f 4a c2 6e a0 4a
       2.5242508e+06 2.7149275e+06 2.3474435e+06 5.257057e+06
000080 cd 70 2d 4b 74 8e 91 4a 28 2a e2 49 73 d3 f7 49
       1.1366605e+07 4.769594e+06 1.852741e+06 2.0301904e+06
000090 d1 b5 45 4b cf e3 03 4a 46 9d 29 4b c7 c4 23 4a
       1.2957137e+07 2.1608838e+06 1.1115846e+07 2.6831858e+06
0000a0 51 27 09 4b 1a 5d 86 4a 04 75 a8 49 ec 18 4d 4a
       8.988497e+06 4.402829e+06 1.3800005e+06 3.360315e+06
0000b0 6b 89 9a 49 4a bd a8 49 66 9d 17 4a f7 3e 74 48
       1.2659654e+06 1.3823132e+06 2.4840575e+06 250107.86
0000c0 40 15 75 4a 57 6f e9 49 9c f1 45 4d a9 49 f0 49
       4.01544e+06 1.9122989e+06 2.075591e+08 1.9684371e+06
0000d0 c3 5a d7 49 09 0b e7 49 7d 37 9d 49 1f dc 80 49
       1.7641844e+06 1.8927051e+06 1.2879196e+06 1.0556199e+06
0000e0 ce 94 f1 49 4e 41 23 4b df e3 ec 49 5f e6 94 4a
       1.9790338e+06 1.0699086e+07 1.9406039e+06 4.8791515e+06
0000f0 ce fe e2 4a 13 0e 84 4a da fe 98 4a 3f cf 1f 4b
       7.438183e+06 4.3271775e+06 5.013357e+06 1.0473279e+07
000100 15 95 28 4c 5b 67 6e 4b 51 23 6c 4a 74 89 d2 4b
       4.4192852e+07 1.5624027e+07 3.8688842e+06 2.7595496e+07
000110 7b ab 59 49 b2 4c aa 4a 27 c5 6d 4a 47 28 0e 4b
       891575.7 5.580377e+06 3.8956258e+06 9.316423e+06
000120 5a 5e b9 49 f1 f6 85 4b 40 63 84 49 e3 b7 0e 4b
       1.5185392e+06 1.755901e+07 1.08452e+06 9.353187e+06
000130 f1 59 31 4a ec ed 77 4b 55 7b d7 49 ae 11 44 4a
       2.9057242e+06 1.62483e+07 1.7652266e+06 3.2123955e+06
000140 77 67 25 4b bd a4 23 4a 5d d0 0d 4a 23 4d 3a 4a
       1.0839927e+07 2.6811352e+06 2.3234792e+06 3.0523608e+06
000150 eb 2c c8 4c 9e 35 56 4a 87 f3 d3 49 be 9e 1e 4a
       1.0494959e+08 3.5096075e+06 1.7363049e+06 2.5988315e+06
000160 a5 f2 ad 4a 1c 69 cf 4a 98 46 1d 4c 35 40 d2 49
       5.6999225e+06 6.79643e+06 4.1228896e+07 1.7223746e+06
000170 ad 2a 7a 4d 70 f2 1c 4a 97 e4 8b 4b ab 55 8d 4a
       2.623188e+08 2.57142e+06 1.8336046e+07 4.6312535e+06
000180 9c fc 26 4b 14 db fa 49 86 a3 5a 4a c4 5b 12 4b
       1.0943644e+07 2.0550105e+06 3.5821775e+06 9.591748e+06
000190 4b 69 f4 49 23 a5 33 4a 14 31 d7 49 4a 6c b8 49
       2.0022174e+06 2.9433048e+06 1.7628505e+06 1.5107932e+06
0001a0 0b 3c 52 4b f0 be 4d 4a 1b a4 a3 4b 9c e8 49 4c
       1.3777931e+07 3.37094e+06 2.1448758e+07 5.2929136e+07
0001b0 84 34 48 4a 5b 21 f5 49 37 59 ca 4a 38 f6 52 4b
       3.280161e+06 2.0081074e+06 6.6305555e+06 1.3825592e+07
0001c0 ec 55 83 4a f2 be 9b 49 19 aa 88 4a 83 9f 22 4a
       4.303606e+06 1.2758702e+06 4.4782205e+06 2.6644168e+06
0001d0 58 72 39 4a 72 22 9a 4a e9 82 33 4a 6d 75 99 4b
       3.038358e+06 5.050681e+06 2.9411142e+06 2.0114138e+07

lbad2.0.weight f4 [360, 120]
000000 77 05 b6 bd df f6 07 be 20 03 02 3d 14 fa 4d bc
       -0.08887761 -0.13277768 0.03174126 -0.01257183
000010 28 e1 cf 3e 1c ff f9 bd a6 36 7e bc 61 aa 6b bd
       0.40601468 -0.122068614 -0.015515959 -0.057535533
000020 de ac 2a be 9e 29 4f bc e6 f4 ab bd 6e 11 09 3e
       -0.16667506 -0.0126442 -0.0839632 0.13385555
000030 ce b1 d9 3e a4 2e a7 3e da 2e 12 3e e8 a6 ea bd
       0.42518467 0.3265277 0.14275685 -0.11457616
000040 29 c3 37 bc d8 51 87 be 29 42 23 be 28 4c 37 3c
       -0.011215963 -0.2642963 -0.15943207 0.011187591
000050 fa 14 69 bd 82 3a 0a 3e 9f 19 89 3d 0e 74 08 3d
       -0.05690477 0.13498881 0.0669434 0.033313803
000060 17 80 c7 bd 44 d3 1a be 3d 8b 12 be 00 b2 93 3e
       -0.09741228 -0.15119654 -0.14310928 0.2884674
000070 0a bc f6 bd 9b 5f 11 3e 84 2c 53 bd 01 17 7b bc
       -0.12047584 0.14196627 -0.051556125 -0.015325309
000080 d2 db 48 3d c8 b9 4e bd da 10 16 3e 66 b8 d0 3d
       0.049037762 -0.050470144 0.14654866 0.10191421
000090 a7 c1 4f be c2 85 af bd ea 6d 99 3b 01 77 01 be
       -0.20288716 -0.08570434 0.004682292 -0.12643053
0000a0 1d 5e 15 be 6a f4 e4 3c 76 c2 3b be 95 73 2b 3d
       -0.14586683 0.027948577 -0.183359 0.041858274
0000b0 c3 c9 0e be 80 78 ac 3c fc e0 57 bd 94 eb fb bc
       -0.13944153 0.021053553 -0.052704796 -0.03075198
0000c0 dd 17 1b 3d c7 99 a8 3d aa 07 93 3e d2 08 2b be
       0.037864555 0.08232456 0.28716785 -0.16702583
0000d0 85 b0 fd bd a4 e3 d9 bd 82 a1 47 3e 0e 66 06 be
       -0.12387184 -0.10639122 0.19495204 -0.13124868
0000e0 af c0 e5 3c 89 ac b4 bd 59 15 db 3b e4 0a 40 3e
       0.02804598 -0.08821971 0.0066858944 0.18754154
0000f0 d2 b7 8b 3d ad 35 d6 bd 87 70 1e be c3 50 3e be
       0.0682217 -0.104594566 -0.15472613 -0.18585496
000100 a1 cd c2 3d 88 f8 ad 3d 53 b1 03 3d 4f 74 54 3e
       0.09511877 0.08494669 0.03215153 0.20747493
000110 8b 85 26 be b9 68 0a be b3 7f 25 b9 01 33 eb 3d
       -0.1626188 -0.13516511 -0.00015783198 0.114843376
000120 f7 8d 2a 3d d1 6c d3 3d 0a 85 42 bd 54 4c b0 3d
       0.041639294 0.103234895 -0.047490157 0.086083084
000130 de 78 1b 3d 51 b5 be 3d 5d 1e 8b 3d a1 71 9e 3d
       0.037957065 0.09311927 0.06792901 0.07736517
000140 41 33 08 3f eb ed a8 3d d5 44 39 be 72 98 3a 3e
       0.5320321 0.08248504 -0.18092664 0.18222216
000150 c6 95 3b 3f 8a 53 e9 3d 6b 6a 15 3e 41 82 b5 bd
       0.7327541 0.11392887 0.14591376 -0.088627346
000160 ce c4 de bb 8e a3 3c 3e 2f 09 57 be 54 88 1b bd
       -0.0067983633 0.18421766 -0.20999597 -0.03797181
000170 67 6c 53 3e 4d a0 8d be 83 ab bc 3d bb a0 20 be
       0.20646821 -0.27661362 0.09212401 -0.15686314
000180 81 d5 31 be 24 bd 08 3e 48 11 a3 bd 64 54 92 3e
       -0.17366602 0.13353401 -0.079622805 0.2858001
000190 45 54 19 be 7d 3e 80 bd 4c b7 21 bd 8f 99 92 3d
       -0.14973553 -0.06261919 -0.039481446 0.07158195
0001a0 84 e3 7e bd 8b 4f 0a 3d e2 36 3b be 22 8d bc 3e
       -0.062228695 0.033767264 -0.18282655 0.36826426
0001b0 0e 40 b5 bd 3e c0 da 3d f0 97 e9 bd 53 5b 1f be
       -0.08850108 0.106811985 -0.11405933 -0.15562181
0001c0 46 94 4b 3d 1a b4 b8 bd 08 07 2e be b3 2c 06 be
       0.04970195 -0.09018727 -0.1699487 -0.13102989
0001d0 f7 b2 b6 3c d6 6f 02 be 55 98 b0 bc 0c e4 8f 3e
       0.022302134 -0.12737975 -0.021557013 0.28103673
0001e0 05 3a 1f bd cb d9 b4 be 5b 3c 85 3d 07 a7 ae 3c
       -0.03887369 -0.35322413 0.065056525 0.02131988
0001f0 14 67 28 bd 97 9b 23 be 0f 7d 20 bd 08 05 7b 3e
       -0.041113928 -0.15977322 -0.039181765 0.24513638
000200 01 02 23 3e 31 e2 e4 3d fa 30 27 bd 77 01 52 be
       0.15918733 0.11175955 -0.040818192 -0.20508371
000210 c8 80 6c be 46 ef 45 be e9 d6 05 bd 98 0e af 3d
       -0.23096001 -0.19329557 -0.032675657 0.085477054
000220 7a 36 4d bc 40 d4 1f bd c9 57 5d 3d f8 cf 3c 3d
       -0.012525195 -0.039020777 0.054038797 0.046096772
000230 e8 cd 02 be 77 cf d9 3d 31 b5 2d be 49 70 80 be
       -0.1277386 0.10635274 -0.1696365 -0.25085667
000240 d0 35 1e bd 02 ad 89 bd 39 1b 64 bd 70 e4 9d bd
       -0.03862554 -0.06722452 -0.055690024 -0.077095866
000250 7b 33 28 3e 8d fe 9b 3d 6c 9f 93 bd 30 be 9a bc
       0.16425888 0.07616911 -0.07208142 -0.018889517
000260 74 a3 bc bd da 4f 0e 3e 9a ec 00 3d c6 af 82 be
       -0.09210864 0.13897648 0.03147564 -0.2552473
000270 ad ed f2 bd 19 3d 3e 3e 16 1a f0 bb a2 0b d5 bc
       -0.11861739 0.18577994 -0.0073273284 -0.026006524
000280 57 82 e9 bc d9 28 71 bd 07 3b f1 bc 3c 42 db be
       -0.028504534 -0.058876846 -0.029447092 -0.4282397
000290 1a 69 ed bc 3d 3d 30 bd fb 8b 0e 3e 39 82 c2 bd
       -0.02898078 -0.04302715 0.13920586 -0.09497494
0002a0 00 67 bb bc 33 bd 42 3b 03 ab d7 be 9e 8a 55 3d
       -0.022876263 0.0029714822 -0.4212266 0.05213415
0002b0 c9 78 2d bd ab a2 03 3e 2d 89 de bd 9b 0e a7 3b
       -0.042351518 0.12855022 -0.10866008 0.0050981767
0002c0 70 95 ba 3d 73 cd 86 bd 13 2e 66 bd c2 36 bb 3d
       0.09110534 -0.06582155 -0.056196284 0.091413036
0002d0 48 8a 24 3e a8 69 18 3e d0 21 82 bc b5 7c e3 3d
       0.16068375 0.14884055 -0.015885264 0.1110777
0002e0 87 42 29 be 37 e9 5b be 5e 0c 69 3e 41 65 c5 be
       -0.16529284 -0.21475683 0.22758624 -0.38553813
0002f0 90 22 6b 3d dc c8 25 be a1 7c d5 3b a9 39 0a 3c
       0.05740601 -0.16189903 0.006515101 0.008436599
000300 a4 d0 5f bd a9 6e f6 bd 3b 47 30 bd 28 38 f6 bd
       -0.054642335 -0.120328255 -0.04303668 -0.1202243
000310 aa 24 d1 bc eb c7 b0 bd cb db 81 bd bf b6 cb 3d
       -0.025530178 -0.08631881 -0.0634075 0.099469654
000320 a4 19 48 bd 27 a5 68 bc de 19 b2 bc cb a7 e4 bd
       -0.048852578 -0.014199532 -0.02174085 -0.111648165
000330 d2 da 3d bd 68 77 15 3e 7d a7 e3 bd 80 3c 29 bd
       -0.04635126 0.14596331 -0.1111593 -0.041317463
000340 79 b2 8b bc 87 e1 99 bd 59 9e 38 be dc 57 c9 3b
       -0.017052876 -0.07513719 -0.18029155 0.006144507
000350 28 19 d1 be 01 a2 98 3c 67 89 f5 bc 20 c2 e1 3c
       -0.40839505 0.018631937 -0.029972745 0.027558386
000360 be 1e 00 3e a1 ad 36 be 00 5e f0 bd 46 16 04 bc
       0.12511727 -0.17839672 -0.11736679 -0.008061951
000370 4c 54 1a 3e 79 53 2e 3c 09 20 9b 3c e4 c8 68 3d
       0.15071219 0.010640019 0.018936174 0.05683221
000380 0a ba ce 3d 23 26 24 be c2 bb 49 be 70 71 03 3d
       0.10094078 -0.16030173 -0.1970053 0.032090604
000390 67 0e cf bd f8 26 6e 3e 2f 8f 8d bd f8 20 70 3c
       -0.10110169 0.23257053 -0.06912076 0.014656298
0003a0 1f 26 25 bd a3 fd 96 3c 3f 3f e6 bd 53 31 88 bd
       -0.04031956 0.01843149 -0.11242532 -0.06650033
0003b0 e2 56 cd 3d e0 02 80 bc ba fb a4 bb f6 a1 7e be
       0.10026337 -0.01562637 -0.005034891 -0.2486647
0003c0 ba 20 f1 3d 73 bd 21 3e 31 9b 71 bc 00 5b 31 bd
       0.1177382 0.15794925 -0.014746473 -0.043299675
0003d0 95 fb 8a bc 96 da 61 3e 17 5f 24 be 61 a7 42 3e
       -0.016965667 0.2205604 -0.16051899 0.19009162
0003e0 ae d6 89 3d 71 03 90 bc 68 e0 45 3e 48 0f 00 3e
       0.067304 -0.017579766 0.19323885 0.1250583
0003f0 af f4 a5 3e 6f ad 23 3d fd 72 24 3e 60 6b 00 3d
       0.3241324 0.03996032 0.1605949 0.0313524

lbad2.0.bias f4 [360]
000000 1c 89 91 bd 7e 83 43 bd 38 1d 88 bd ba a4 9c 3d
       -0.0710623 -0.047732823 -0.06646198 0.076486066
000010 16 2d 81 3d 05 05 68 bd c1 ad 96 3d b9 e1 82 bd
       0.063074276 -0.056645412 0.0735736 -0.063907094
000020 70 5a 3d bd fa 6b 8e bb 49 9e 00 bd 4a e0 4c bd
       -0.046228826 -0.004346368 -0.031400952 -0.050018586
000030 3a 15 15 bd 1e 89 13 bd d3 b8 a0 3d dd a8 12 bd
       -0.036397196 -0.036019437 0.078477524 -0.03580557
000040 ac 7a 88 bd e2 d4 38 bc bd b1 a7 bd ae ed b3 bd
       -0.06664023 -0.011281224 -0.08188198 -0.08785568
000050 ac d8 f5 bb f4 ca 94 bd 51 57 02 3d 22 d3 6e bb
       -0.007502636 -0.07265273 0.031821553 -0.0036441763
000060 b6 6f 3c bd 89 f8 9a 3d 73 1b ef bc d7 54 99 3d
       -0.046004973 0.075669356 -0.029187893 0.07486885
000070 9f 2c f5 bb dc fe 1a 3d 99 0b 15 3c 52 b4 f7 37
       -0.007482126 0.03784071 0.009097003 2.9528663e-05
000080 5a 92 ab 3d 73 0d 8e bc c6 19 8c bd bb 2b 8c bd
       0.08377524 -0.017340397 -0.068408534 -0.068442784
000090 a8 09 89 bb 93 ca 68 bd ba aa 8f bd bc de 9b 3d
       -0.0041820593 -0.056833815 -0.070149854 0.076108426
0000a0 77 cc 40 bd 9d 96 a6 bd fe 75 0d bb ed 4d 9a 3d
       -0.047069993 -0.08134196 -0.0021585221 0.075343944
0000b0 fd 99 8b 3d e5 b4 8b 3d f3 8a 11 bc 31 14 80 ba
       0.0681648 0.06821612 -0.008883226 -0.0009771643
0000c0 e6 00 ba bd fc e7 2d 3d 8b f4 59 3c 01 bd 80 bd
       -0.090822026 0.042457566 0.0133029325 -0.0628605
0000d0 39 41 75 bd ec ad 70 bc 0e 34 94 bd db a7 15 3d
       -0.059876654 -0.014689904 -0.07236491 0.036537033
0000e0 eb ac 13 3d 7d d6 71 3d 41 60 8e 3d e7 1e 96 bc
       0.03605358 0.059042443 0.06951953 -0.018325282
0000f0 63 be 28 3d 88 ff 9f bd 32 96 92 3b 5b 27 0c bd
       0.041197192 -0.078124106 0.004473471 -0.03421722
000100 1e 9b a4 bc 73 7f 28 bd 91 28 4e bd 85 f9 99 3d
       -0.020093497 -0.04113717 -0.050331656 0.07518295
000110 f5 d2 0e 3d 33 12 2f 3d 24 7f 30 bc 44 a2 71 3d
       0.034869153 0.042741966 -0.0107725 0.05899264
000120 5b bd 92 bd 07 33 3e 3c 7b 5b 5b 3c 88 b4 92 bd
       -0.07165023 0.011608846 0.01338851 -0.0716334
000130 e5 e3 6c 3d a8 02 8f bc 7c e9 a8 bd 4b 41 67 3b
       0.057834525 -0.017457321 -0.082476586 0.003528672
000140 e5 fc 4e 3d cf fc 14 3d b1 3d f4 bc bd 5b b1 3d
       0.050534148 0.03637391 -0.029814573 0.08660076
000150 cd 0f 02 3d 6f fd 8c 3d 86 5e 7c bd a2 94 e4 3c
       0.03175335 0.06884276 -0.061613582 0.027902905
000160 49 dd 2c bd 88 0d 89 bd db 18 b3 bd 82 96 6f bd
       -0.04220322 -0.06692034 -0.08744975 -0.058493145
000170 2a d2 8b bd 3e 0d fa 3c 8c 98 08 3d 54 3c 05 3d
       -0.06827195 0.030523892 0.033348605 0.032528237
000180 7e d3 b9 bc 6a 81 42 3d 8b f2 57 3d 9c d5 f4 bc
       -0.022683855 0.0474867 0.05272154 -0.029887013
000190 4f 49 a9 3d 4d c4 89 3c b5 df c0 bc ff 53 53 3d
       0.08265936 0.016817236 -0.023544172 0.051593777
0001a0 79 1b 77 bb 6d 03 9c 3d ec e6 b8 bd 7e a9 2f 3b
       -0.0037705584 0.07617841 -0.0902842 0.0026803906
0001b0 6f 85 8e bc 50 bc 82 bb 88 ae 06 bd 1b ac fa bb
       -0.01739761 -0.0039897338 -0.03288129 -0.007649911
0001c0 1b b2 96 bc ff 2a 9d bd f2 3d 95 3d e7 cd ca bb
       -0.018395474 -0.076742165 0.07287206 -0.0061890963
0001d0 2b 36 81 bd b9 d2 73 3d 48 a8 a5 bd 53 4e 6c bd
       -0.0630916 0.059527133 -0.08088738 -0.057691883
0001e0 02 e2 05 ba 85 73 0f bc b3 93 8c bd fe da 81 3d
       -0.0005107225 -0.008755569 -0.06864109 0.063405976
0001f0 86 b1 bd 3c 8d f6 98 bd 0f 17 a5 3d 76 eb 66 3d
       0.023155939 -0.07468901 0.08061039 0.056376897
000200 7f 18 aa 3d 53 fa 40 bd 08 e8 f8 3c 16 60 60 3d
       0.083054535 -0.047113728 0.030384079 0.054779135
000210 43 b3 14 3c e5 ef ce 3c 45 95 ee 3c 8e d7 03 3c
       0.009075942 0.025260875 0.029123912 0.008046998
000220 fb b5 a5 bc b6 57 a3 3d 73 c4 16 3c 0b 58 21 bd
       -0.020228377 0.07975714 0.009202111 -0.039390605
000230 b9 0d e9 bb 73 9b ff bc bc 0e 0e bd b7 e1 91 bd
       -0.0071122316 -0.031202054 -0.03468202 -0.0712313
000240 28 db ac 3c 7c 6f 22 3d d0 59 a9 3d be 39 7b bd
       0.021100596 0.0396571 0.082690835 -0.061334364
000250 ed 75 95 3c f1 ab aa bd 41 43 1e bd c0 ca 69 bd
       0.018244708 -0.083335765 -0.038638357 -0.057078123
000260 c8 ac 86 bc 4b 25 9e b9 6f 96 eb bc 05 c0 46 bd
       -0.01643981 -0.00030163894 -0.028758256 -0.048522968
000270 45 10 b1 3d 3d 31 b6 bc 08 f6 88 3d 94 d6 f4 ba
       0.08645681 -0.022240276 0.06687552 -0.0018679672
000280 18 02 81 bd 7f 92 b8 bd 57 6a 57 bd 20 d0 aa bd
       -0.062992275 -0.09012317 -0.052591648 -0.08340478
000290 ca c8 4d 3d 5f 58 1e bd 71 66 3a bd 24 8f 2e bd
       0.050240315 -0.038658496 -0.045507852 -0.04261698
0002a0 2f 3d d5 3b 22 a0 84 bd 5e bc 68 3d de 62 87 3d
       0.006507538 -0.064758554 0.056820266 0.06610654
0002b0 46 e7 89 bc 30 c7 3a bd c7 34 26 3d f1 a2 ab bd
       -0.016833913 -0.045600116 0.040577676 -0.08380688
0002c0 6f 09 dd bc de d5 df bb 05 68 6c bc e6 96 a1 3b
       -0.026982037 -0.006830915 -0.014429097 0.0049313186
0002d0 f9 6b 58 3d 7c 45 6a bd 07 30 b9 bc 34 dd b1 bd
       0.052837346 -0.05719517 -0.022605909 -0.08684769
0002e0 cc fa d2 3c 0c a4 0e bd 43 6d 8f 3d 32 67 84 3d
       0.025754355 -0.034824416 0.07003262 0.064649954
0002f0 d7 4e 49 bd 3e c2 21 bd 5d 26 3f bc e5 4e 6c bd
       -0.049147453 -0.039491884 -0.011666861 -0.057692427
000300 c2 ec 5c bd 9b 8a b0 bd 3f d9 60 3d 7b cb 2b bd
       -0.053936727 -0.08620187 0.054894682 -0.0419421
000310 a0 d0 30 3d 5f ba af 3d c3 1f fa bc 12 5a a5 bd
       0.04316771 0.08580469 -0.030532723 -0.0807382
000320 47 0f ba bc 2b 84 32 3d 70 b9 90 3d 42 15 34 bd
       -0.022712363 0.043583076 0.070666194 -0.043965586
000330 c0 c8 1e bd e6 3f 75 3c e9 e0 91 bd fc c7 ae 3d
       -0.03876567 0.014968848 -0.07122976 0.08534238
000340 00 d4 e9 3c 76 6e b9 bd 64 04 a7 3c 2e f9 03 bd
       0.028543472 -0.09054272 0.020387836 -0.03222006
000350 86 35 98 3d 65 f0 c2 3c 93 4a 5f 3d eb 43 2c bd
       0.07432084 0.02379627 0.05451448 -0.04205696
000360 cd 33 04 bd 73 d0 c7 3c e1 22 1d bd c2 2d c9 3c
       -0.032275964 0.024391389 -0.03836334 0.024557952
000370 0e a1 70 3d fd ec 6e bd c5 96 ce 3c 2b ea 75 bd
       0.058747344 -0.05833148 0.025218377 -0.060037773
000380 ad 5e 1f 3d 7d 91 89 bd 5e 00 bb 3c e4 8a df bc
       0.03890865 -0.06717203 0.022827324 -0.027287908
000390 74 86 bd 3c 0c fa 45 bd 8c f0 84 bd d2 37 d2 3c
       0.023135401 -0.048334166 -0.06491193 0.025661383
0003a0 9d 88 93 bc 0d 52 8c 3d 78 38 a5 3a b6 82 be 3c
       -0.018009478 0.068515874 0.001260533 0.023255687
0003b0 a2 21 8b bc 98 6a b7 3d 33 2b 92 3d 61 4a 91 3d
       -0.01698381 0.08955878 0.07137146 0.07094265
0003c0 42 ae 0e 3d 73 32 5c bd ec 4b a7 bd 1b 0b a3 bd
       0.034834154 -0.05375905 -0.08168778 -0.079611026
0003d0 84 ee 8e bc 0d e0 76 bd 52 58 8b bd d4 cc 0a bd
       -0.017447717 -0.060272265 -0.06803955 -0.033886746
0003e0 18 b7 20 bd ff 60 4a bd 58 56 41 bd 32 ff a8 bd
       -0.03923711 -0.04940891 -0.047201484 -0.082518
0003f0 ad 9b 85 3d fb 14 ba 3d 13 1a 03 3d 49 ad b0 3c
       0.065238334 0.09086033 0.03200729 0.021567004

lbad2.1.weight f4 [360]
000000 da 52 62 3e 95 02 93 3f 77 7e a2 3e d4 c9 fd 3f
       0.22101918 1.1485163 0.3173711 1.9827218
000010 fd 12 95 40 7d b9 4c 3f 61 0b c9 3e 1b 27 61 3f
       4.658568 0.7997053 0.39266494 0.87950295
000020 96 26 cd 3e c1 62 ac 3e bb 5b 13 40 4c 72 0f 40
       0.400685 0.33669093 2.3024738 2.2413511
000030 7a b2 35 40 54 15 01 3f 94 e7 49 3f 55 a4 df 3f
       2.8390183 0.5042317 0.78868985 1.7472025
000040 f2 fc 96 3f c7 d4 a3 3f 53 04 a0 3e 6b 98 a7 3f
       1.1795943 1.279931 0.312533 1.3093389
000050 15 4e 1e 3e f7 fc 15 3f 00 d5 68 3f 67 95 04 3f
       0.15459473 0.5858912 0.9095001 0.5179047
000060 d8 1f 16 3f ce 55 d9 3f 39 08 c2 3f c2 58 97 3f
       0.5864234 1.697931 1.5158759 1.1823962
000070 e7 af 34 40 ca 2f c5 3e 56 3c 4d 3f fb ad 28 3f
       2.8232362 0.38513023 0.8017019 0.65890473
000080 a5 6c 23 3f 9e 79 7f 3f c3 77 0b 3f 2f 34 7d 3e
       0.63837653 0.9979495 0.54479617 0.24726938
000090 4c 53 09 3f d8 d3 88 3f 1d 90 e0 3e f0 3e 5b 3f
       0.53642726 1.068965 0.4385995 0.8564291
0000a0 3b e5 ae 3e 92 45 86 3f bf d5 af 3e 54 be 5b 3f
       0.34159264 1.0489981 0.34342763 0.8583729
0000b0 66 f9 13 3f 55 27 51 3f 39 d6 2b 3f 8f dd cc 3d
       0.57802427 0.8170064 0.6712375 0.100031964
0000c0 f4 0a ec 3f 51 c2 4f 3f 3b 64 89 3f 02 e7 b8 3e
       1.8440843 0.8115588 1.0733713 0.36113745
0000d0 f7 04 49 3f 1f f6 cd 3f 7b b6 09 3f 17 33 74 3f
       0.785232 1.6090735 0.5379407 0.95390457
0000e0 82 f3 b8 3f 95 f1 e8 3f 91 66 3c 40 9d 11 70 3f
       1.4449313 1.8198725 2.9437602 0.93776876
0000f0 16 9d 2b 3f 9b 2b 64 3f e1 bf 59 3f 2e a4 91 3f
       0.6703657 0.89129037 0.8505841 1.1378229
000100 3d 3f eb 3e 3d ad ac 3f c5 8a e7 3e 06 f1 e9 3f
       0.45946684 1.3490368 0.4522306 1.827668
000110 0d 69 60 3f f2 b9 76 3f 79 b5 18 40 e6 21 ad 3f
       0.87660295 0.9637748 2.3860762 1.352597
000120 d8 a8 24 3f 54 f1 66 3e 31 e5 aa 3f 7b e0 3d 3f
       0.64320135 0.22552997 1.3351194 0.74170655
000130 df bd 65 3f 5d 5f 91 3e 5e dc 1d 3f 72 88 d8 3f
       0.89742845 0.2839307 0.6166438 1.691664
000140 f5 f7 64 3f 7a af 8c 3f 31 3f 18 3f 74 42 90 3f
       0.8944085 1.0991051 0.5947142 1.127028
000150 25 7e 4e 3f 34 2b ee 3e 01 9f 5c 3f 46 74 43 3f
       0.8066123 0.46517336 0.8618012 0.76349294
000160 fd 19 9c 3e 62 3c dd 3e 4c ad 4c 3f a2 08 b5 3e
       0.30488577 0.4321013 0.7995193 0.3535815
000170 2f 1c f0 3e aa ee 10 40 df b9 11 3f 17 fc 42 3f
       0.46896502 2.264567 0.5692424 0.7616591
000180 79 1f 3c 3f 50 25 86 3f 7e fe 72 3f 93 8e b4 3f
       0.73485523 1.0480137 0.94919574 1.410601
000190 fc 9d e9 3f 7e 10 06 40 1a fb 9e 40 28 4a 1d 3f
       1.8251338 2.0947566 4.968152 0.6144128
0001a0 85 98 de 3f b0 56 00 40 ea 28 4c 40 5a aa cc 3e
       1.7390295 2.005291 3.1899972 0.39973718
0001b0 47 d5 0d 3f 57 3f fb 3f b2 09 48 3f 23 91 10 3f
       0.5540356 1.9628705 0.78139794 0.5647146
0001c0 f8 a6 91 3f 0e 18 7b 3e ec 24 82 3f 4b 1c 74 3f
       1.137908 0.24520895 1.0167518 0.9535567
0001d0 0e 10 c1 3e bd c3 39 3f 73 e3 66 3f 54 ad 57 3f
       0.3770756 0.725643 0.9019081 0.8424885
0001e0 a3 56 85 3f 49 2f 11 40 33 7f 71 3f c4 ab 0e 3f
       1.0417064 2.268511 0.94334716 0.55730844
0001f0 04 3d 0b 40 62 24 03 3f 6a fb 56 3f cb e7 8c 3f
       2.175599 0.5122739 0.8397738 1.1008238
000200 89 27 49 3f 67 86 0f 3f bd 8b f6 3e 8d d7 cb 3f
       0.7857595 0.56064457 0.48153487 1.5925156
000210 fa b1 70 3f 0c aa 19 40 f7 46 4f 40 d6 89 09 3f
       0.9402157 2.4010038 3.2387064 0.53725946
000220 c9 4c 95 3f b4 bc 12 3f 83 fa 72 3f 01 27 61 3f
       1.1664058 0.5731919 0.949135 0.8795014
000230 58 13 1d 3f 87 06 4d 3f 17 4b fe 3f d8 23 80 3f
       0.6135764 0.80088085 1.9866666 1.0010939
000240 bb 6c 5f 3f ee b5 11 3f 14 eb a0 3f f7 5b 1d 3f
       0.87275285 0.5691823 1.257174 0.6146845
000250 4b 44 7c 3f 6a f0 86 3f af 2c 1f 3f bf 99 4a 3f
       0.98541707 1.0542119 0.62177557 0.7914085
000260 2b 06 83 3f 0e 3b 13 40 70 2d c4 3e cb f4 a6 3e
       1.0236257 2.3004794 0.38315916 0.32608637
000270 d2 f2 b1 3f fb 3f 00 41 1a c4 8d 3f 3c 55 b5 3f
       1.3902228 8.01562 1.107547 1.4166636
000280 b1 19 d6 3e 8c 75 50 3e ea 5e ca 3f 61 88 3b 3f
       0.41816476 0.2035734 1.5810215 0.7325497
000290 7f 43 7f 3f 6f 64 3a 3f 26 5f 97 3f d9 f6 1f 40
       0.99712366 0.728095 1.1825912 2.4994414
0002a0 e3 ee 8f 3f 45 f6 53 3f 4a bd 6d 3f b5 28 9e 3f
       1.1244777 0.8279765 0.9286696 1.2356173
0002b0 b2 95 02 3f ed 19 92 3f 35 a1 a6 40 8c 0f 14 3f
       0.51009667 1.1414162 5.2071786 0.5783622
0002c0 61 f0 b1 3f 4c df 78 3f 12 b5 c8 3f 79 18 5b 40
       1.3901483 0.97215724 1.5680258 3.4233687
0002d0 1f 56 28 3f b5 42 26 3f 64 3c 5e 3f 42 8b 15 3f
       0.6575641 0.64945537 0.868109 0.58415616
0002e0 6b 2a c6 3e 7b e4 49 3f d4 9d 29 3e d3 23 e8 3e
       0.38704237 0.7886426 0.16564113 0.45339832
0002f0 0c 65 c6 3f 1d e0 40 3f 79 08 63 3f 1a 6f 09 40
       1.5499587 0.7534197 0.88684803 2.147406
000300 4f 2f 9f 3f b8 18 ef 3e 47 a5 27 3f ac 9e a4 3f
       1.2436312 0.46698546 0.6548657 1.2860923
000310 62 f2 d5 3e 2a 8e 38 3e 9b e0 4e 3f 9d de 1c 3e
       0.41786486 0.18022981 0.8081147 0.15319295
000320 2b 85 c7 3e 14 f6 8a 3e 6c f0 47 3f 57 ef 98 3f
       0.38968787 0.27140868 0.7810123 1.1948041
000330 bb ed 98 40 7f d5 b9 3e 8d 48 1a 3f b4 41 a2 3f
       4.77902 0.36295697 0.60266954 1.2676301
000340 20 56 24 3f 96 d2 55 3f b5 15 0d 3f a9 52 a0 3f
       0.64193916 0.83524454 0.5511125 1.2525226
000350 aa 94 3d 40 2e 3f 80 3f 62 e4 97 3f 75 dc 12 3f
       2.9621987 1.0019281 1.1866572 0.5736764
000360 65 10 62 40 6f 9d 53 3f 9e 2d b6 3f 22 ce 89 3f
       3.5322506 0.826621 1.4232671 1.0766032
000370 b0 f4 e6 3e 11 83 22 3f 14 2d 0c 3f 97 10 dc 3f
       0.45108557 0.6348124 0.54756284 1.7192563
000380 ec 5b b5 3e 0c 5a 91 3f 5f c3 95 3f dd a4 80 3f
       0.35421693 1.1355605 1.1700248 1.0050312
000390 49 0d 4a 3f 69 7c 3b 3f c8 78 84 3f 66 10 30 3f
       0.7892652 0.7323671 1.034936 0.6877502
0003a0 10 97 2b 3f b9 80 11 3f c5 17 7e 3f bd 3f bc 3f
       0.6702738 0.5683704 0.9925502 1.4706951
0003b0 6c de de 3e 13 81 30 40 2c bd ce 3f 5a 6a de 3e
       0.4352907 2.757878 1.6151481 0.43440515
0003c0 1b 59 5d 3f eb c4 fc 3e 0a 68 71 3f 22 1b 02 3f
       0.8646409 0.49368986 0.94299376 0.5082265
0003d0 b0 a7 4b 3f 1f 1f a6 40 58 29 33 3f 12 92 92 3e
       0.79552746 5.191299 0.6998496 0.28627068
0003e0 fe 3d 27 3f 5a 90 d5 3e c5 f1 ff 3e a3 84 9a 3f
       0.6532897 0.41711694 0.49989143 1.2071728
0003f0 cc a4 91 3e c3 89 4a 3f eb 1a 02 40 e9 2d 01 40
       0.28446043 0.7911646 2.032893 2.0184271
