Домашнее задание 1/torch_model/lbag_adam_model.pth (torch, 369419 bytes, 25 tensors)

lbad1.0.weight f4 [120, 90]
0	0x38d1fd8f	0.000100131256
1	0x37d4a62e	2.5349753e-05
2	0x39d63ce4	0.00040862628
3	0x39cf7b70	0.00039574085
4	0xb9600d9b	-0.00021367373
5	0x3876ca64	5.883946e-05
6	0xb834f13a	-4.3140004e-05
7	0x39b69328	0.00034823385
8	0x38489f61	4.783215e-05
9	0x393aa039	0.0001779803
10	0x37f8ab96	2.9643805e-05
11	0xb871175f	-5.7480644e-05
12	0xb6d3b2e4	-6.3091156e-06
13	0x3e0143ef	0.12623571
14	0x3d8d1a1f	0.06889748
15	0x3dd047f5	0.10169975
16	0x3bf575f9	0.00749087
17	0x3d04e154	0.032441452
18	0xbc160b5e	-0.009157984
19	0x3cafad5f	0.021444974
20	0x3a7f848e	0.000974723
21	0x3a573b4c	0.0008210435
22	0x37adbd74	2.0711428e-05
23	0x392f508c	0.00016719307
24	0x38b8443e	8.786515e-05
25	0x3badafa3	0.0053004785
26	0xbb976fa0	-0.004621461
27	0xb980ff58	-0.00024604308
28	0x3a3b5fc9	0.0007147757
29	0x3ab384e0	0.0013696216
30	0x3ae899ca	0.0017746028
31	0x39c8c4fa	0.00038293732
32	0xbab3b415	-0.0013710285
33	0xb7338330	-1.0699776e-05
34	0xba3d2621	-0.00072154595
35	0xb9c7959a	-0.000380677
36	0xbd2c2100	-0.04202366
37	0x3d0c829e	0.034304254
38	0x3b819672	0.003954702
39	0x3acc482b	0.0015585473
40	0x39bacbb7	0.00035628464
41	0xbb0fb21e	-0.0021926234
42	0xb6a440d2	-4.895127e-06
43	0x3a0a360b	0.0005272335
44	0x39a80055	0.00032043704
45	0xba64977f	-0.00087200844
46	0x3ccdc996	0.025120538
47	0xbc344838	-0.011003546
48	0x3a608d5d	0.00085659866
49	0x3adc8c72	0.0016826524
50	0x3abac2d3	0.0014248736
51	0xbaa17407	-0.0012317904
52	0xb860daef	-5.360966e-05
53	0x384bb9e0	4.857208e-05
54	0xba456f4f	-0.000753154
55	0x3b2b6b48	0.0026156474
56	0xbbaae30d	-0.005215055
57	0xbb604638	-0.003422154
58	0xbac31c29	-0.0014885712
59	0xbb01beeb	-0.0019797634
60	0x39abbbc7	0.00032755567
61	0x3895bd29	7.1401075e-05
62	0xb9edc64a	-0.000453519
63	0xbcb8d659	-0.022563146
64	0x3b89b2a1	0.0042022024
65	0xbb0f6b19	-0.0021883904
66	0xba3cae6d	-0.00071976223
67	0x397c0407	0.00024034093
68	0x3ab79b01	0.0014007987
69	0xba147320	-0.0005662907
70	0xbbbab1ba	-0.005697456
71	0xbb0ed143	-0.002179221
72	0x39fbc434	0.00048020633
73	0xba435081	-0.00074506557
74	0x3989a161	0.00026250913
75	0xb88412a4	-6.2977226e-05
76	0x3c884bae	0.01663765
77	0xba3fece7	-0.0007321373
78	0x3aa3a1d4	0.0012484142
79	0xbaae0ac6	-0.0013278357
80	0x3981867b	0.00024704993
81	0x3a12e309	0.0005603289
82	0xb9968211	-0.00028707137
83	0xb80af3ef	-3.3128945e-05
84	0xb7f016e5	-2.862089e-05
85	0x39831d85	0.0002500826
86	0xba36e25b	-0.00069764786
87	0x39495adb	0.000192027
88	0x3b5b4817	0.0033459717
89	0x38e6fe70	0.00011014647
90	0xb54ac1ea	-7.5533046e-07
91	0xb7971d21	-1.8014167e-05
92	0xb78f76d0	-1.7102255e-05
93	0x37e83280	2.7680071e-05
94	0x35f6965d	1.837219e-06
95	0x37b7db42	2.19174e-05
96	0xb61c2fe0	-2.3273678e-06
97	0xb58069ef	-9.567574e-07
98	0xb669910e	-3.4804139e-06
99	0xb6006ae5	-1.9135707e-06
100	0x36a7f49a	5.005463e-06
101	0xb6cf92f5	-6.186189e-06
102	0xb6800414	-3.815172e-06
103	0x38acbec2	8.2371305e-05
104	0xb9f35438	-0.0004641132
105	0xb956aeea	-0.00020473791
106	0x38becdb7	9.0982234e-05
107	0x39376508	0.00017489877
108	0xb702a276	-7.78643e-06
109	0xb8c7a08e	-9.518965e-05
110	0xb5c408a9	-1.4605658e-06
111	0xb85cd03d	-5.2646024e-05
112	0x388f176e	6.8231355e-05
113	0xb72c57fb	-1.0272483e-05
114	0xb889362f	-6.5427615e-05
115	0x37adc87c	2.0716565e-05
116	0xb790735c	-1.7219856e-05
117	0xb88f40f4	-6.83087e-05
118	0x34b7a1da	3.420417e-07
119	0xb8560707	-5.102812e-05
120	0xb890461b	-6.879513e-05
121	0x3736c077	1.0892857e-05
122	0x381d3060	3.747677e-05
123	0x376a195c	1.3953391e-05
124	0xb7097e59	-8.195254e-06
125	0x38f87bc5	0.000118486154
126	0xb807081d	-3.2194064e-05
127	0xb6c91398	-5.992548e-06
128	0x3818a230	3.6390673e-05
129	0xb8b23a6e	-8.498585e-05
130	0x36e8c872	6.9374737e-06
131	0xb7da9c73	-2.6060477e-05
132	0xb744cdf7	-1.1730465e-05
133	0x36d9cbb3	6.4908177e-06
134	0x36b0e154	5.2714404e-06
135	0x38c1f2f5	9.2482114e-05
136	0x3495f6c8	2.793297e-07
137	0x35f2d963	1.8093673e-06
138	0xb855fdd1	-5.1019542e-05
139	0x3819ff56	3.6715843e-05
140	0x37ce5499	2.4596508e-05
141	0x36aa37b7	5.072881e-06
142	0x385e01f8	5.2930758e-05
143	0xb691298f	-4.326175e-06
144	0xb7aa56c0	-2.0305975e-05
145	0x35fcd55a	1.8837557e-06
146	0x384fe451	4.9565282e-05
147	0x3652829b	3.136846e-06
148	0x370d0483	8.405305e-06
149	0xb7ad7b7e	-2.0680713e-05
150	0xb791b6f6	-1.7370545e-05
151	0xb797a0b4	-1.8075436e-05
152	0x372a7aaa	1.016135e-05
153	0xb89e9fea	-7.5638134e-05
154	0xb73792d5	-1.0941837e-05
155	0xb7b44d87	-2.1493774e-05
156	0xb6dabc01	-6.518793e-06
157	0x37a0dcef	1.9176367e-05
158	0xb7b92883	-2.2072583e-05
159	0xb8010ded	-3.0768966e-05
160	0x3797d446	1.809945e-05
161	0x375730da	1.2826373e-05
162	0xb72419fb	-9.781211e-06
163	0x36b3de7c	5.3605163e-06
164	0x3582521f	9.709655e-07
165	0xb669398d	-3.4753205e-06
166	0x373b6008	1.1168428e-05
167	0xb7eee38a	-2.8477767e-05
168	0xb5fd669a	-1.887983e-06
169	0xb608a776	-2.0363054e-06
170	0xb75aab61	-1.3033715e-05
171	0x3617ef34	2.2639988e-06
172	0x379510d1	1.7770015e-05
173	0x35e25b2d	1.6864848e-06
174	0xb7cd6224	-2.4483605e-05
175	0xb6f2dcbc	-7.237859e-06
176	0x376ba49f	1.404542e-05
177	0x38797985	5.94794e-05
178	0xb7657973	-1.3677741e-05
179	0x36ddd2c1	6.6108482e-06
180	0xbab20722	-0.0013582448
181	0x3c262d47	0.010142631
182	0xbb6d2fcd	-0.0036191822
183	0xbb0bf215	-0.002135401
184	0x3a889a26	0.0010421916
185	0x397a61e9	0.00023878332
186	0xbb7c2463	-0.0038473837
187	0x39593df9	0.0002071782
188	0x3b106595	0.0022033204
189	0x3b46417a	0.003025143
190	0xba9299d2	-0.0011184758
191	0xbb16037a	-0.0022890256
192	0xbbcd4e16	-0.006265412
193	0x3d28a253	0.04117043
194	0x3d6c705a	0.057724334
195	0xbc9e61be	-0.019333716
196	0x3a89be1b	0.0010508926
197	0xbca82250	-0.020524174
198	0xbd1b5165	-0.03791942
199	0x38c29ed4	9.280225e-05
200	0xbd04914a	-0.03236512
201	0x3be57b69	0.007003237
202	0x3c554309	0.013016471
203	0xbd3d6b81	-0.0462451
204	0x3c8bdc2b	0.017072758
205	0x3cb65040	0.022255063
206	0xbbfd8ca8	-0.007737715
207	0x3c360bf0	0.011111245
208	0x3c98e9b3	0.018666124
209	0x3d234238	0.039858073
210	0xbce5c13f	-0.028046248
211	0x3cb38368	0.021913245
212	0xbc8c3525	-0.017115185
213	0x3cb0047d	0.021486515
214	0xbaa4bd12	-0.0012568554
215	0xba8b7cb6	-0.0010642025
216	0xbd185b84	-0.03719665
217	0x3d097d4c	0.033566758
218	0xbbdebba8	-0.0067972727
219	0xbd114ca9	-0.0354735
220	0x3d20614e	0.039155297
221	0x3a86f4e0	0.0010296367
222	0xbba73fb1	-0.005104028
223	0x3bd45271	0.0064795543
224	0x3b032556	0.0020011268
225	0xbc0e5c66	-0.008689022
226	0x3b14dcc1	0.0022714587
227	0xbbeabe2a	-0.0071637826
228	0x3b57713c	0.003287389
229	0xbbb68158	-0.005569618
230	0x3c279f5f	0.010230868
231	0xbb746705	-0.003729285
232	0x3ba3e7c0	0.005001992
233	0xbbd4dbf6	-0.006495948
234	0x3b72ab54	0.003702839
235	0xbb956644	-0.00455931
236	0xbc1f857e	-0.009736417
237	0xbca9b8b4	-0.020717956
238	0xbc22caec	-0.009936076
239	0xbd1959a6	-0.03743901
240	0x3b8045ad	0.003914556
241	0xbc1f6c67	-0.009730435
242	0x3b345f84	0.0027522752
243	0xbc1e02d8	-0.009644233
244	0x3b503125	0.0031767574
245	0x3ce12422	0.02748305
246	0xbc87537b	-0.016519299
247	0x3d329d44	0.04360701
248	0xbcf2eb0c	-0.029653095
249	0x3b9bba36	0.0047524227
250	0x3c2560b2	0.010093855
251	0xbc943122	-0.018089835
252	0x3ca675e0	0.020319879
253	0x3ccae661	0.024768056
254	0x3902b46f	0.00012464983
255	0x3b8634e9	0.004095663

lbad1.0.bias f4 [120]
0	0xb90a8da5	-0.00013213472
1	0xb051b69a	-7.629325e-10
2	0xb40f4654	-1.3343498e-07
3	0xb6a6d3c0	-4.9718365e-06
4	0x37ed5de0	2.8296316e-05
5	0xaf641312	-2.0743254e-10
6	0xb1d410eb	-6.1719354e-09
7	0xb659e38a	-3.2467965e-06
8	0xb169cf62	-3.4023846e-09
9	0x363f095c	2.8466666e-06
10	0xb7f631ff	-2.9348766e-05
11	0xb036b605	-6.646988e-10
12	0xb63fa527	-2.855735e-06
13	0xba02eed1	-0.0004994693
14	0xb76503c3	-1.36503395e-05
15	0x33b3e13a	8.3763055e-08
16	0x318dcd7f	4.1270023e-09
17	0x2f293311	1.5388603e-10
18	0x35aa726d	1.2699289e-06
19	0xb0a5c07a	-1.2060035e-09
20	0x2fada7bb	3.1587696e-10
21	0xb848328f	-4.7730802e-05
22	0x37605447	1.3371063e-05
23	0x39afac04	0.00033506763
24	0xb22320ab	-9.495277e-09
25	0x2f0166fc	1.1769069e-10
26	0xb4f6624c	-4.589259e-07
27	0xb827eed9	-4.0038347e-05
28	0xb820e760	-3.8362457e-05
29	0x35573f0a	8.0185475e-07
30	0x31210c6d	2.3435647e-09
31	0xb39df52b	-7.355478e-08
32	0xafc0a471	-3.504144e-10
33	0x325e0ffb	1.2925734e-08
34	0xb548a79b	-7.4749704e-07
35	0xb1486e83	-2.916665e-09
36	0x38d22619	0.000100206766
37	0x3082d218	9.518457e-10
38	0xb453bac0	-1.9718846e-07
39	0xba2944ef	-0.000645711
40	0xb2e5f1ed	-2.6769124e-08
41	0xbab8e6dc	-0.0014106887
42	0x30f28d99	1.7648062e-09
43	0x30c3b403	1.423928e-09
44	0xb58ea947	-1.0629091e-06
45	0xaeed5782	-1.0793057e-10
46	0x36407fda	2.868465e-06
47	0xacf8a9e2	-7.0674447e-12
48	0xb5bfde17	-1.4295246e-06
49	0x3602a680	1.9468425e-06
50	0x36084f5d	2.0311775e-06
51	0x33745f30	5.689725e-08
52	0xb936c99e	-0.00017431981
53	0xb7bf509a	-2.2806507e-05
54	0xb0f4e61c	-1.7818738e-09
55	0xb4869fd4	-2.5075735e-07
56	0x34897234	2.5601332e-07
57	0xb20d0d53	-8.21031e-09
58	0xb8b173ef	-8.461612e-05
59	0x3ab0b6a0	0.0013482161
60	0xb5a7a1fe	-1.2489616e-06
61	0xb5294b02	-6.3066557e-07
62	0x34ad4b20	3.2278422e-07
63	0xb10ea806	-2.075923e-09
64	0xb11ca7b1	-2.279631e-09
65	0x312c79ab	2.5098454e-09
66	0x3164a10b	3.326991e-09
67	0xae804859	-5.8336176e-11
68	0x368a33a2	4.1187313e-06
69	0x33358c1e	4.2269782e-08
70	0xb0aeb8c0	-1.2712675e-09
71	0xb90b0433	-0.00013257637
72	0xb73ac07f	-1.1131283e-05
73	0x34191afc	1.4259052e-07
74	0xad20e22a	-9.1451655e-12
75	0xb4cd3947	-3.82259e-07
76	0xb2401dcb	-1.1182645e-08
77	0x3a18d585	0.0005830157
78	0x3a8d2a64	0.001077008
79	0xb8873b23	-6.448317e-05
80	0xb99aaae9	-0.00029500507
81	0xb57c6fcc	-9.404e-07
82	0xb20a059b	-8.033932e-09
83	0x2dac2e73	1.9574764e-11
84	0x35a44070	1.2237706e-06
85	0xb624a3bf	-2.4533217e-06
86	0x32415736	1.1253908e-08
87	0xb0213baf	-5.8656274e-10
88	0xada9f412	-1.9321465e-11
89	0x318a9ed5	4.0343857e-09
90	0xb1ba9d6d	-5.4312097e-09
91	0xb8db9ab7	-0.00010471552
92	0xb7ac7e0f	-2.0562698e-05
93	0xb1250fb5	-2.4019589e-09
94	0xb2f521c2	-2.8537105e-08
95	0x34042ed6	1.2310497e-07
96	0x394938c1	0.00019189996
97	0xb94d375e	-0.0001957095
98	0xb48261f7	-2.4285666e-07
99	0xb6a7046e	-4.9775035e-06
100	0x32147d37	8.643204e-09
101	0xb72f7f37	-1.0460432e-05
102	0x349ea1e9	2.9547599e-07
103	0xb2b29ae0	-2.0792356e-08
104	0xba8da13a	-0.0010805496
105	0xb3372eb8	-4.26505e-08
106	0x32553be7	1.2411852e-08
107	0x329b6668	1.8090944e-08
108	0x2e71b39e	5.4956588e-11
109	0xb2028f5a	-7.59959e-09
110	0xad2e8bb9	-9.9217795e-12
111	0x36b80ca1	5.4850975e-06
112	0x37172172	9.008088e-06
113	0x30d4f47a	1.5494515e-09
114	0xb4c400f4	-3.6508538e-07
115	0xae19b8ca	-3.4952298e-11
116	0x2e43c9f9	4.4517254e-11
117	0xb43f97cd	-1.7843486e-07
118	0x3778b511	1.482411e-05
119	0x33e25fa2	1.05413406e-07

lbad1.1.weight f4 [120]
0	0x3d052e80	0.03251505
1	0x38b183fc	8.464602e-05
2	0xbd039e01	-0.032133106
3	0xbb0d56ea	-0.0021566697
4	0x38487d97	4.780068e-05
5	0x399f23ff	0.00030353662
6	0xb5522594	-7.828578e-07
7	0xb9311bd0	-0.00016890396
8	0xb8a92c2d	-8.066776e-05
9	0xb83336bc	-4.27279e-05
10	0xb462587f	-2.1080085e-07
11	0x35ced0a7	1.5408922e-06
12	0x3d27c711	0.04096133
13	0x365af4cf	3.2627029e-06
14	0xbc8235f3	-0.015894866
15	0xb57cc772	-9.4167547e-07
16	0x38b630e3	8.687542e-05
17	0x35004d48	4.7796175e-07
18	0x3a35923a	0.00069263915
19	0xb7224bb1	-9.673576e-06
20	0xb66f2503	-3.563532e-06
21	0xb8f786a1	-0.000118029544
22	0xb7c38e8c	-2.331219e-05
23	0xbb8c5f88	-0.004283849
24	0x38dd9ebe	0.00010567669
25	0xb82f18b5	-4.174626e-05
26	0x3925be44	0.00015806506
27	0x33aa6102	7.9338875e-08
28	0xbdb6300d	-0.08895884
29	0xb9c2b7ce	-0.0003713951
30	0xbd9489ee	-0.072528705
31	0x3750468a	1.241419e-05
32	0xb92bbaa9	-0.00016377367
33	0xb6f32d24	-7.2472194e-06
34	0xbc14167f	-0.009038567
35	0xbcc8afe3	-0.024497932
36	0xb8ceaa0e	-9.8545206e-05
37	0x39827cdf	0.00024888568
38	0xbb25df8d	-0.0025310249
39	0xba2d238b	-0.00066047226
40	0x399fd347	0.00030484257
41	0x344c60c0	1.9034178e-07
42	0x35afb043	1.3089815e-06
43	0x3bd17db4	0.006393159
44	0x3981bcaf	0.00024745378
45	0xb5d96d99	-1.6199657e-06
46	0xb618c149	-2.2762272e-06
47	0xb7f7b779	-2.953013e-05
48	0xb801669d	-3.0851563e-05
49	0x3ab6ccf1	0.0013946575
50	0xb41dbe33	-1.4690958e-07
51	0x3e48adf1	0.19597603
52	0xb922a70a	-0.00015511751
53	0x3f3cc8d7	0.7374396
54	0x3b94bfd4	0.0045394693
55	0x3b1a9137	0.002358509
56	0xbe82cda7	-0.25547525
57	0xb6df021a	-6.6461625e-06
58	0x39c22ac2	0.0003703442
59	0xb66db400	-3.5420526e-06
60	0x36692867	3.4743223e-06
61	0x3e3dbc52	0.1852887
62	0x3e55e6c4	0.20888811
63	0xbc4ee823	-0.012628588
64	0xbb30b1e3	-0.0026961497
65	0x3cb63e5f	0.022246538
66	0xba66281f	-0.0008779782
67	0x32befbcd	2.2233417e-08
68	0x3c8f176a	0.01746722
69	0x31c4ec96	5.7312475e-09
70	0xbd0b4bd7	-0.034007873
71	0xb510f6c7	-5.400329e-07
72	0xbd7aff75	-0.06127878
73	0xb919d9dc	-0.00014672376
74	0x34f45429	4.5509776e-07
75	0xbf0104f7	-0.503982
76	0x3d81ac53	0.06331696
77	0xb45339f0	-1.9671984e-07
78	0xbc13bc97	-0.009017131
79	0x37ceb05c	2.4639237e-05
80	0xb91fff6d	-0.00015258575
81	0xba8bae22	-0.0010656754
82	0x3b3d56f3	0.0028890937
83	0x35dc988d	1.6435675e-06
84	0xb74c19bc	-1.2165339e-05
85	0x3a018154	0.0004940231
86	0xb9986e19	-0.00029073728
87	0xbb84f93b	-0.004058031
88	0xb890414b	-6.878617e-05
89	0xb520f431	-5.995999e-07
90	0x3b809699	0.0039242026
91	0xbd558021	-0.052124146
92	0x368d128f	4.204288e-06
93	0xba237c11	-0.0006236444
94	0xb56616d6	-8.571491e-07
95	0xb66d4397	-3.5355094e-06
96	0xb7c5bf78	-2.357339e-05
97	0x36ebd569	7.02839e-06
98	0xbbe1ddcc	-0.0068928953
99	0x3eab54f5	0.33463255
100	0x333205cc	4.1449127e-08
101	0xb84b9ac3	-4.8543105e-05
102	0xba9d0b49	-0.0011981513
103	0xbd78c4ee	-0.06073468
104	0xbec8a157	-0.39185593
105	0xb7d70440	-2.5631976e-05
106	0x38b11ff6	8.445971e-05
107	0xbc4cbd4d	-0.012496305
108	0x3a52d70b	0.0008042908
109	0xb5c2c295	-1.4510757e-06
110	0xbcacfe57	-0.021117372
111	0xbd87192d	-0.06596599
112	0x35c9ef45	1.5045304e-06
113	0x360f2f20	2.133609e-06
114	0x328add10	1.6165842e-08
115	0x248f4feb	6.215175e-17
116	0x36899483	4.100207e-06
117	0x3c67cb8f	0.014147653
118	0xb9c2a87c	-0.00037128094
119	0xb53aaa6f	-6.9538413e-07

lbad1.1.bias f4 [120]
0	0x3bd16ca8	0.0063911267
1	0xb98a29c6	-0.00026352535
2	0x3d8f7fc4	0.07006791
3	0xbabbed99	-0.0014337777
4	0xbaf66144	-0.0018797298
5	0xba896a03	-0.0010483864
6	0xb5992fd0	-1.1413304e-06
7	0xb9c91d7b	-0.00038359672
8	0xb92221f9	-0.0001546218
9	0xb975d20a	-0.00023443266
10	0xb60a036c	-2.0565594e-06
11	0xb725fb96	-9.893343e-06
12	0xbd7504d2	-0.05981905
13	0xb7233b1e	-9.729321e-06
14	0xbd4b012b	-0.04956166
15	0xb75841dc	-1.2889937e-05
16	0xbb05c82c	-0.0020413501
17	0xb68df0b2	-4.230148e-06
18	0xbb484fd1	-0.0030565152
19	0xb7c43e13	-2.3393926e-05
20	0xb7164494	-8.956664e-06
21	0xb9e5f3c5	-0.00043859906
22	0xb9cb803d	-0.00038814722
23	0xbc02f646	-0.0079932865
24	0xb991892c	-0.00027758756
25	0xba06af58	-0.00051378226
26	0xba52bcb1	-0.00080389815
27	0xb56b834b	-8.773538e-07
28	0x3c96de9c	0.018416695
29	0xbae0f8e8	-0.0017164024
30	0x3dd95adf	0.106130354
31	0xb8e07d53	-0.00010704496
32	0xb9f96d30	-0.00047574332
33	0xb7e491b3	-2.7247565e-05
34	0x3d69f83c	0.0571215
35	0x3d9ad9ff	0.07561111
36	0xb9df5efa	-0.00042604638
37	0xba58c6c9	-0.00082693674
38	0xbc8a5f47	-0.016891135
39	0xbb5a742d	-0.0033333406
40	0xb8f220ad	-0.000115455456
41	0xb60cc01d	-2.097345e-06
42	0xb6a3eec7	-4.885576e-06
43	0xbcd9f700	-0.026607037
44	0xba359ee6	-0.000692828
45	0xb7f5ac7f	-2.92866e-05
46	0xb82969ae	-4.039116e-05
47	0xba1d9059	-0.0006010584
48	0xba5fb16c	-0.0008533213
49	0xbcace53b	-0.0211054
50	0xb59bc184	-1.160472e-06
51	0x3e8334c8	0.25626206
52	0xb93cc317	-0.00018001754
53	0x3eed0ecd	0.46300355
54	0xbbff2774	-0.0077866856
55	0xbb8b3583	-0.0042483225
56	0x3dba4b89	0.090964384
57	0xb7ce6050	-2.4601963e-05
58	0xbbe96891	-0.007123061
59	0xb8207f91	-3.8265778e-05
60	0xb6e63f4e	-6.861904e-06
61	0xbd87ced9	-0.0663125
62	0xbd95238f	-0.07282173
63	0xbcf89dee	-0.030348744
64	0xbcb11564	-0.021616645
65	0xbdd89e60	-0.10577083
66	0xbb933bdc	-0.00449322
67	0xb6d616ee	-6.3803664e-06
68	0xbd202c13	-0.039104532
69	0x3509c311	5.1320336e-07
70	0xbd990707	-0.074720435
71	0xb9a83678	-0.0003208404
72	0xbd73d96c	-0.05953352
73	0xba95c4f5	-0.0011426496
74	0xb671dbfd	-3.6039849e-06
75	0x3d7f4aa5	0.062327046
76	0xbbfb5fc7	-0.0076713297
77	0xb3c9637e	-9.3778894e-08
78	0xbcfd1170	-0.030892104
79	0xb913ee31	-0.00014107746
80	0xba682dc3	-0.00088569167
81	0x39c7454b	0.00038007865
82	0xbc51c745	-0.012803857
83	0xb704c266	-7.913075e-06
84	0xb8968269	-7.176848e-05
85	0xba87fecb	-0.0010375617
86	0xbaa2185a	-0.0012366876
87	0xbc19b280	-0.009380937
88	0xb91ff318	-0.00015253981
89	0xb6f4f22c	-7.299959e-06
90	0xbbe74e74	-0.007058913
91	0xbe693885	-0.22775467
92	0xb7b5be68	-2.1665546e-05
93	0xbb1ca075	-0.002389935
94	0xb892fc09	-7.008768e-05
95	0xb69e7db9	-4.723403e-06
96	0xb99edcf7	-0.0003030074
97	0xb8f322a3	-0.000115935945
98	0x3d1c06dd	0.038092483
99	0xbcddb1b1	-0.027062269
100	0xb54c954e	-7.621319e-07
101	0xba21da47	-0.00061741885
102	0xbca37ea2	-0.019957844
103	0x3d103560	0.035207152
104	0x3d9e8b25	0.077413835
105	0xb9f37126	-0.00046432874
106	0xb91d40f6	-0.00014996887
107	0xbd0bb039	-0.034103606
108	0xbafca6a8	-0.0019275742
109	0xb710fe39	-8.64226e-06
110	0xbd8173a9	-0.063208885
111	0xba975676	-0.0011546153
112	0xb89574e4	-7.126646e-05
113	0xb837fd7b	-4.3866672e-05
114	0xb6124146	-2.179369e-06
115	0xb7c3bede	-2.3334691e-05
116	0xb84a7aed	-4.8275037e-05
117	0xbcc98efd	-0.024604315
118	0xba671b31	-0.00088160025
119	0xb6958e85	-4.4571375e-06

lbad1.1.running_mean f4 [120]
0	0x441cee18	627.7202
1	0xbf4a3e58	-0.7900138
2	0x430c796a	140.47427
3	0x41286949	10.525704
4	0xc0de88d5	-6.954203
5	0x3f3dd297	0.7414946
6	0x396918a7	0.00022229795
7	0x3ef63f56	0.48095196
8	0x3f11d2cb	0.5696227
9	0x3d83547e	0.064126
10	0xbacbb544	-0.0015541692
11	0xbb6d28b8	-0.00361876
12	0x4374ce3b	244.80559
13	0xbd837932	-0.064196005
14	0xc35609c0	-214.03809
15	0xbae5a5c5	-0.0017520717
16	0x41ab31d8	21.399338
17	0x3cac2e3b	0.021018138
18	0xc1056dd5	-8.339314
19	0x3ca8d56e	0.020609584
20	0x3c2ed94e	0.010671927
21	0xbd1fcb47	-0.03901222
22	0xbf83bfee	-1.0292947
23	0xc177d546	-15.489569
24	0xbf2d161e	-0.67611873
25	0x3fc12520	1.5089455
26	0x3facea7c	1.3509059
27	0xb9a51c84	-0.00031492498
28	0xc4023628	-520.8462
29	0xc10f3787	-8.9510565
30	0xc3e649da	-460.57697
31	0xbe82b853	-0.25531253
32	0x3efc0247	0.49220487
33	0x3b8687ae	0.0041055297
34	0xc382af7a	-261.3709
35	0x42d47893	106.2355
36	0xbece24a6	-0.40262336
37	0xc085a60a	-4.1765184
38	0x4231c3bb	44.441143
39	0x418c5428	17.541092
40	0x3de5ec5a	0.11226721
41	0xba6088e9	-0.0008565323
42	0x3ab9baab	0.0014170011
43	0x4258cbf3	54.19917
44	0x3e143bc3	0.14475922
45	0x3cbbe78d	0.02293756
46	0xbcecf1f6	-0.02892397
47	0x41a5d94a	20.731098
48	0xc1239afd	-10.225339
49	0x4123a4b4	10.227711
50	0xba101d63	-0.0005497543
51	0x44966729	1203.2238
52	0x3e4ad3ff	0.19807433
53	0x44b2e048	1431.0088
54	0x41bcd085	23.601816
55	0xc298b26f	-76.3485
56	0xc3d78d77	-431.1052
57	0x3bdf8953	0.0068217902
58	0x3fc2cfe9	1.5219699
59	0xbcee07b2	-0.029056404
60	0xbee65c19	-0.4499214
61	0x44484658	801.0991
62	0x43d96042	434.752
63	0x4293ba83	73.86428
64	0xc24f6245	-51.845966
65	0x42dfa724	111.82645
66	0x3eb0bc94	0.34518874
67	0xbc0a6221	-0.008446247
68	0xc2a0e0da	-80.43916
69	0xb7dd2017	-2.6360196e-05
70	0x440855da	545.34143
71	0x3db07c57	0.08617466
72	0xc402eec6	-523.73083
73	0x3f1d792e	0.6151303
74	0x3aa6141e	0.001267079
75	0xc4bd2da1	-1513.4259
76	0x438925ee	274.29633
77	0xb92d00bf	-0.00016498844
78	0xc2bab91f	-93.361565
79	0xbde89a41	-0.113575466
80	0xbeadaa96	-0.3391921
81	0x419360f5	18.422342
82	0x3f81fff0	1.0156231
83	0xbb8c754a	-0.004286443
84	0x3dce708a	0.10080059
85	0x3f473e08	0.7782903
86	0xbf3738fc	-0.71571326
87	0x412b8a7a	10.721308
88	0x3e472710	0.19448495
89	0xb9613b38	-0.00021479733
90	0xc2ce9bec	-103.304535
91	0xc3cd7e1b	-410.9852
92	0x39eceb41	0.00045188706
93	0x4108ee9e	8.558256
94	0x3dc06d6f	0.09395873
95	0x3d64b296	0.055834375
96	0x4152c3be	13.172789
97	0xbd200131	-0.039063636
98	0xc1c06b8f	-24.052519
99	0x449a9506	1236.657
100	0xba0986c2	-0.0005246216
101	0xbfa47c4f	-1.2850436
102	0x431533cd	149.20235
103	0xc390a12c	-289.25916
104	0xc513ef77	-2366.9666
105	0xbec773d0	-0.38955545
106	0xc0c88b5d	-6.267012
107	0xc393d757	-295.68234
108	0xc0815488	-4.0415688
109	0x3997e42d	0.0002897097
110	0xc1915e9c	-18.171196
111	0xc3bdce79	-379.61307
112	0xbded2361	-0.115790136
113	0x3ebcf2d6	0.3690402
114	0x38ac858b	8.2264734e-05
115	0x2bccdbd6	1.4556089e-12
116	0x3d88a665	0.06672362
117	0xc26aae3c	-58.67015
118	0x401cfc64	2.4529047
119	0x3daf42c4	0.085576564

lbad1.1.running_var f4 [120]
0	0x47d54249	109188.57
1	0x40364d8e	2.8484836
2	0x46291337	10820.804
3	0x41fa8cea	31.318806
4	0x423e14ff	47.520504
5	0x3ebcb2eb	0.36855254
6	0x328ec0cc	1.661865e-08
7	0x3df5ceae	0.12002312
8	0x3dd28ca7	0.102807336
9	0x3c1ca74c	0.009561371
10	0x3598f7d3	1.1397009e-06
11	0x36e79aa1	6.9023376e-06
12	0x47435ca1	50012.63
13	0x3b1274f5	0.0022347544
14	0x4672b46f	15533.108
15	0x36dd2be5	6.5914232e-06
16	0x4338da93	184.8538
17	0x391a9a33	0.00014744028
18	0x4247c8b4	49.946
19	0x399390bf	0.0002814587
20	0x3839b14f	4.427257e-05
21	0x3c4424ae	0.011971636
22	0x3eadc06c	0.3393587
23	0x43e76dd7	462.85812
24	0x3e43c3a2	0.19117597
25	0x3f5c71aa	0.8611094
26	0x3f58cc6a	0.8468691
27	0x3304e788	3.094422e-08
28	0x479a9fba	79167.45
29	0x41be2937	23.770124
30	0x48a9060c	346160.38
31	0x3cbbc798	0.022922322
32	0x3eaf0d72	0.34189945
33	0x3972d291	0.0002315736
34	0x46e46657	29235.17
35	0x47139739	37783.223
36	0x3d50bb0a	0.050959624
37	0x40a4e85c	5.153364
38	0x443a1a60	744.4121
39	0x42bfa1a7	95.81573
40	0x3d5a97e7	0.05336752
41	0x360a76f9	2.0632854e-06
42	0x3691baba	4.3430746e-06
43	0x448d4aa1	1130.3322
44	0x3c8a0d05	0.016851911
45	0x39be6e1c	0.00036321662
46	0x3abbc589	0.0014325838
47	0x431e898c	158.5373
48	0x41fa228b	31.266867
49	0x4288544b	68.164635
50	0x33bf8c71	8.919677e-08
51	0x490718b2	553355.1
52	0x3d843e9d	0.06457255
53	0x4931e068	728582.5
54	0x43dd6490	442.78564
55	0x44f130a5	1929.5201
56	0x486272b2	231882.78
57	0x38a13223	7.686417e-05
58	0x408684c0	4.203705
59	0x3985d314	0.00025525002
60	0x3daafdfc	0.08349225
61	0x486a29ac	239782.69
62	0x4809f110	141252.25
63	0x45a84880	5385.0625
64	0x448abc96	1109.8933
65	0x4751745d	53620.363
66	0x3ef3105d	0.47473422
67	0x388839fd	6.4957865e-05
68	0x46199ec2	9831.689
69	0x2ff3cb3d	4.4345852e-10
70	0x482f2148	179333.12
71	0x3cdd4b5b	0.027013471
72	0x47982684	77901.03
73	0x3eb611e0	0.35560513
74	0x358cfd53	1.050454e-06
75	0x492374f8	669519.5
76	0x4729bbc3	43451.76
77	0x32cbdf13	2.3733753e-08
78	0x45b6e3d8	5852.4805
79	0x3d94b43e	0.07260941
80	0x3d0cc7f7	0.03437039
81	0x42d7eca1	107.962166
82	0x3fd8a8d4	1.6926522
83	0x37bad26c	2.2270913e-05
84	0x3b958175	0.0045625516
85	0x3f890d5e	1.0707204
86	0x3e994f4d	0.29943314
87	0x44ad7829	1387.755
88	0x3d0c75f0	0.03429216
89	0x379a6cc2	1.8408875e-05
90	0x455cd7b4	3533.4814
91	0x4787155c	69162.72
92	0x37757d4f	1.4632314e-05
93	0x41e5df69	28.734087
94	0x3bf9b47f	0.0076203938
95	0x3aaaaeb1	0.0013022033
96	0x428fb7d1	71.85902
97	0x3b54a11e	0.0032444666
98	0x448f4799	1146.2374
99	0x48ed7016	486272.7
100	0x33a245fc	7.556443e-08
101	0x405a4a6f	3.410793
102	0x45cd766b	6574.8022
103	0x46f78b0d	31685.525
104	0x49adfd70	1.425326e+06
105	0x3d9c5ac4	0.076345
106	0x41814c18	16.162155
107	0x46b8cab1	23653.346
108	0x40d9e0ce	6.808692
109	0x363297ef	2.6612504e-06
110	0x446f6688	957.60205
111	0x473b4bc2	47947.758
112	0x3b84ebde	0.004056438
113	0x3d62ed19	0.055401895
114	0x312d47e0	2.521567e-09
115	0x1426803b	8.406147e-27
116	0x3ac6d78c	0.0015170439
117	0x44d5052e	1704.1619
118	0x40245bd0	2.5681038
119	0x3b3bb910	0.0028644241

lbad2.0.weight f4 [360, 120]
0	0xac716ec4	-3.4309647e-12
1	0xae3813fa	-4.18545e-11
2	0x2cec4906	6.7156307e-12
3	0xa60af857	-4.821493e-16
4	0x27d7f3cb	5.993881e-15
5	0xb1a0494d	-4.664946e-09
6	0x20eb2991	3.9838055e-19
7	0xa7a539ca	-4.5859355e-15
8	0xa34e1dc4	-1.11735855e-17
9	0xa5bd784e	-3.2867795e-16
10	0xa2350668	-2.4533466e-18
11	0xa466cab1	-5.0044986e-17
12	0x29e277db	1.0057208e-13
13	0x3135b6cb	2.6442872e-09
14	0x38d803a4	0.00010300361
15	0xa20f729e	-1.9440792e-18
16	0x2764cff0	3.175408e-15
17	0x2274b89a	3.3165894e-18
18	0xa61901e9	-5.3085127e-16
19	0xa37e6a61	-1.3791894e-17
20	0xa3dcbe06	-2.3932926e-17
21	0x25a5d417	2.8766655e-16
22	0x282e4851	9.6746214e-15
23	0xb648432e	-2.9841426e-06
24	0x3396dc01	7.024938e-08
25	0xa622f884	-5.654184e-16
26	0x25213236	1.3981536e-16
27	0xa07bc10d	-2.1324402e-19
28	0xab48124d	-7.107967e-13
29	0x24167f20	3.2633744e-17
30	0x2ed340ad	9.606658e-11
31	0xb9b2584a	-0.00034016586
32	0xb94273cf	-0.00018544424
33	0xa1b09d4b	-1.1967859e-18
34	0xab9b377d	-1.1028813e-12
35	0x37c813b6	2.3851037e-05
36	0xa598a24e	-2.647778e-16
37	0xa2bc265a	-5.099811e-18
38	0xaa2c924c	-1.5327426e-13
39	0xa4f2a462	-1.05229246e-16
40	0xa88ebf47	-1.584812e-14
41	0xa057c2b6	-1.8275633e-19
42	0xa12a53b9	-5.7709046e-19
43	0xa7886887	-3.786091e-15
44	0xa6ae98d9	-1.2115105e-15
45	0x32c1ef7c	2.2577062e-08
46	0xaeaed7e0	-7.950951e-11
47	0x22ec4aec	6.4047255e-18
48	0x225aeb70	2.9669149e-18
49	0xa74893d5	-2.7835716e-15
50	0xa169671c	-7.9079935e-19
51	0xad1bd5e8	-8.858227e-12
52	0xa59ce9d9	-2.7220148e-16
53	0xadd93246	-2.469237e-11
54	0xa6cbd155	-1.4142694e-15
55	0x2387063f	1.4639375e-17
56	0xba2bae28	-0.00065490836
57	0x22cbfaa4	5.5288636e-18
58	0xa4c40498	-8.500923e-17
59	0x22d54a2b	5.7812294e-18
60	0x2486d1c8	5.846862e-17
61	0xac8cf500	-4.00624e-12
62	0x2a724b13	2.1519964e-13
63	0x25c68ac8	3.4441567e-16
64	0xa8008b73	-7.135666e-15
65	0x3903644f	0.00012530501
66	0xae07d283	-3.0882418e-11
67	0xa1897cb8	-9.316494e-19
68	0x2b04f1e1	4.7231495e-13
69	0x23c1a610	2.0995432e-17
70	0xb15a096c	-3.172853e-09
71	0xa387bafc	-1.471592e-17
72	0x2b5e0e23	7.888986e-13
73	0xa606a001	-4.6707435e-16
74	0xa0373a84	-1.5520064e-19
75	0xaf58237f	-1.9657696e-10
76	0xab6dcea7	-8.44861e-13
77	0x9f241dd7	-3.4753034e-20
78	0xa71b0ca6	-2.1517428e-15
79	0x24d99bcd	9.4372685e-17
80	0x273f921f	2.6585787e-15
81	0x293b073f	4.1528626e-14
82	0x27ca4864	5.614475e-15
83	0xba1433cb	-0.00056534697
84	0xba7147a2	-0.00092040945
85	0xb3a05ce8	-7.46748e-08
86	0x25ce2dce	3.5766342e-16
87	0x383afe7f	4.4582874e-05
88	0x24372c6c	3.9719426e-17
89	0x240c0998	3.0365787e-17
90	0xa71ede5d	-2.2047448e-15
91	0xac024ac6	-1.8515619e-12
92	0x9f95d501	-6.345634e-20
93	0x22af55d6	4.7524727e-18
94	0x25a3f987	2.844508e-16
95	0x3235a20d	1.0572433e-08
96	0x227a5f3f	3.393174e-18
97	0xa4ead0f9	-1.0183534e-16
98	0x34067168	1.252098e-07
99	0x2a48663f	1.7799042e-13
100	0x1eb41ebd	1.9070954e-20
101	0x2604ed3f	4.611823e-16
102	0xa5b8a6cc	-3.2031938e-16
103	0xabb34134	-1.2736812e-12
104	0xaddc9eca	-2.508162e-11
105	0x23fc9962	2.7386855e-17
106	0xa5326403	-1.5472924e-16
107	0xa984ef23	-5.903461e-14
108	0xa47591a7	-5.324928e-17
109	0xa3a28f6c	-1.7624817e-17
110	0x27e37952	6.3136692e-15
111	0x2b98cf33	1.0857759e-12
112	0x2255b0e9	2.8960538e-18
113	0xb3c5167f	-9.1776194e-08
114	0xb07db910	-9.2303853e-10
115	0xa303d8ab	-7.1474055e-18
116	0xa510bb77	-1.2553525e-16
117	0x330cacce	3.2753455e-08
118	0x2677c03e	8.5955876e-16
119	0x2021d4ce	1.3707642e-19
120	0x390363f1	0.00012530365
121	0x345068bd	1.9409613e-07
122	0xb9555fda	-0.0002034897
123	0x34c52fb1	3.672881e-07
124	0xb393716b	-6.8658515e-08
125	0x35e939ac	1.7376638e-06
126	0xae86aa12	-6.123825e-11
127	0x375a534f	1.3013209e-05
128	0x353008ab	6.557772e-07
129	0xb396e9c2	-7.0274396e-08
130	0x2f8fff14	2.6192792e-10
131	0x35b85531	1.3733862e-06
132	0x39250705	0.00015738241
133	0xaf9bd60d	-2.8346428e-10
134	0x3905d551	0.00012763335
135	0x31867749	3.9134744e-09
136	0x3335ceaf	4.2330324e-08
137	0xb01e5de9	-5.761352e-10
138	0x36568686	3.1966788e-06
139	0x324f0512	1.2050139e-08
140	0xb08bab4e	-1.0162269e-09
141	0x3350e9ba	4.8641347e-08
142	0x37270f27	9.957504e-06
143	0x3804cf8b	3.1664542e-05
144	0xb25c00d2	-1.2805872e-08
145	0x34b6d3ed	3.4054338e-07
146	0x355a6676	8.136043e-07
147	0xb1d24793	-6.1199414e-09
148	0xbaa0d94c	-0.0012271791
149	0x3400b0b2	1.198521e-07
150	0x3b9c09a6	0.0047618924
151	0x3038a9ab	6.717992e-10
152	0x36a08c09	4.784674e-06
153	0xb164d1d1	-3.3297634e-09
154	0xbada7048	-0.0016665542
155	0x3a640e97	0.0008699684
156	0xb3da96d0	-1.0178849e-07
157	0xb58038db	-9.55329e-07
158	0x37175dd7	9.02215e-06
159	0x34df8411	4.1633078e-07
160	0x37c36fa6	2.3297802e-05
161	0xad403384	-1.0925375e-11
162	0x30240f14	5.968428e-10
163	0xb74f2201	-1.2346079e-05
164	0x3553edd3	7.8949705e-07
165	0xb1457dd3	-2.8738796e-09
166	0x2f3b6137	1.7042089e-10
167	0xb190309b	-4.1964774e-09
168	0xb38a2590	-6.432958e-08
169	0xb880f108	-6.148411e-05
170	0x2e6c969f	5.3793966e-11
171	0x3a4a3a6f	0.0007714396
172	0xb3ff8189	-1.1897925e-07
173	0xbafb6cc9	-0.0019182201
174	0xb6499af8	-3.0041538e-06
175	0xb50d348c	-5.260306e-07
176	0xb7bc1fdd	-2.2426184e-05
177	0x3270a231	1.4006717e-08
178	0xb471104b	-2.2450801e-07
179	0x35914f63	1.0826446e-06
180	0xb1c88fd9	-5.8371197e-09
181	0xbb79c979	-0.0038114472
182	0xbacd7507	-0.0015675136
183	0xb848f2e7	-4.7909936e-05
184	0x3624460f	2.4478684e-06
185	0xb9b0259f	-0.00033597366
186	0xb501f0a8	-4.8406446e-07
187	0x31192aa0	2.228866e-09
188	0xb865ef9a	-5.4821e-05
189	0x2f87ed7e	2.4725105e-10
190	0x380d0a7b	3.362678e-05
191	0xb37cfa27	-5.8900834e-08
192	0xb8a55a09	-7.8845835e-05
193	0xb5b1b863	-1.3241191e-06
194	0x38467676	4.7317204e-05
195	0xba0283e2	-0.00049787585
196	0x3a10d9ec	0.0005525637
197	0x2e2c813c	3.9223055e-11
198	0xb6a98eae	-5.0532026e-06
199	0x3589acea	1.025762e-06
200	0x32109f0e	8.418068e-09
201	0x33cc5a38	9.515901e-08
202	0xb8a04432	-7.642097e-05
203	0x2f2735c3	1.5207662e-10
204	0x32274f1d	9.738668e-09
205	0xb233e443	-1.0471072e-08
206	0x36493d76	2.998711e-06
207	0xb3ccbe91	-9.534154e-08
208	0x3a03bc0d	0.0005025275
209	0x3122c37c	2.3685223e-09
210	0xb5e6854c	-1.717513e-06
211	0xb9f7c41d	-0.00047257627
212	0xb0c9b151	-1.4675071e-09
213	0x341310f4	1.369661e-07
214	0x3683444e	3.912056e-06
215	0x318fe780	4.1881663e-09
216	0x330e96a3	3.3198955e-08
217	0x2f729470	2.2062507e-10
218	0xb1f7d104	-7.2124084e-09
219	0xbbb59fcc	-0.005542731
220	0xb8039335	-3.136993e-05
221	0x30bd2bf1	1.3764049e-09
222	0xb5bcd950	-1.4070338e-06
223	0xb9f1d7bf	-0.00046127845
224	0x3b777f7e	0.00377652
225	0x332676bc	3.8757875e-08
226	0xb757bc74	-1.2858876e-05
227	0x371a6881	9.203447e-06
228	0x36522f9c	3.132015e-06
229	0x393d8506	0.00018074
230	0x38524805	5.0134975e-05
231	0xb8f2ed19	-0.00011583622
232	0xb29a74e1	-1.798111e-08
233	0xb1e98ab9	-6.7969634e-09
234	0xadb66dfa	-2.0739844e-11
235	0x2c8b3d4d	3.9574234e-12
236	0xb210adc3	-8.421412e-09
237	0x362a54b4	2.5381278e-06
238	0x32eb90b7	2.742341e-08
239	0x2eaf9f57	7.986383e-11
240	0xb78c91d5	-1.6757209e-05
241	0x37f3db8f	2.9070097e-05
242	0x38335ea4	4.2765067e-05
243	0xb3125c93	-3.407747e-08
244	0xb78b6710	-1.6618083e-05
245	0xb7469d41	-1.1838333e-05
246	0xaf816d57	-2.3542654e-10
247	0xb60d58cf	-2.106233e-06
248	0xb0f156f1	-1.7559768e-09
249	0xb6b3024d	-5.3348836e-06
250	0x32213985	9.384512e-09
251	0x3804fbc6	3.1705735e-05
252	0xb79689c9	-1.7945555e-05
253	0xb9d647b6	-0.0004087069
254	0xb95adfa5	-0.00020873414
255	0xb1c87dc3	-5.8350635e-09

lbad2.0.bias f4 [360]
0	0xb3b42c20	-8.3899295e-08
1	0x33143d47	3.4514667e-08
2	0x3613d63f	2.2029415e-06
3	0xb5b4d042	-1.3471656e-06
4	0xb99e7b80	-0.00030228123
5	0xb1696e08	-3.3968508e-09
6	0x32a9effb	1.978332e-08
7	0x37074118	8.061783e-06
8	0x35be7944	1.4191396e-06
9	0x396b025e	0.00022412228
10	0xb9908350	-0.00027563656
11	0x2d21b4c1	9.191926e-12
12	0x392365ff	0.00015582888
13	0xb418d57a	-1.4233765e-07
14	0x3a2cccde	0.0006591807
15	0x3237ffd9	1.0710175e-08
16	0xb811a4e9	-3.472428e-05
17	0xb7364e75	-1.0866313e-05
18	0x3a35c2fd	0.00069336576
19	0xb2f99288	-2.905405e-08
20	0x37391504	1.1031752e-05
21	0x3a204c43	0.00061148795
22	0x392b298f	0.00016323313
23	0xb334ae53	-4.2068063e-08
24	0x35598956	8.103865e-07
25	0xb79b4315	-1.8508677e-05
26	0x3aae0644	0.0013277014
27	0xb1e09960	-6.5366947e-09
28	0xb40c91e2	-1.3091588e-07
29	0xba8158e3	-0.0009868409
30	0xaea8620f	-7.657174e-11
31	0xba80c6ca	-0.0009824869
32	0xb4b82490	-3.4299273e-07
33	0x33bea5fb	8.877756e-08
34	0x35c9d566	1.5037774e-06
35	0xb412e2f4	-1.3679875e-07
36	0xb2b424dc	-2.097152e-08
37	0xb535eb11	-6.776982e-07
38	0x30f60142	1.7899213e-09
39	0xb3e30120	-1.0570716e-07
40	0x382b954e	4.0908628e-05
41	0xb7c67652	-2.3658537e-05
42	0x3a24f23e	0.00062922004
43	0x370044c0	7.645402e-06
44	0xb9cf1807	-0.00039500018
45	0x355e6a3b	8.285603e-07
46	0xb29c4f79	-1.819693e-08
47	0x38a5f29d	7.913003e-05
48	0xb8474e5e	-4.7518282e-05
49	0xb5c94b8c	-1.4997654e-06
50	0x39d1ee58	0.00040041166
51	0x30a497c6	1.1975707e-09
52	0xaeff046c	-1.1596843e-10
53	0xb59d8e63	-1.1738852e-06
54	0xb31d7684	-3.66622e-08
55	0x37d174d3	2.4969142e-05
56	0xb44054f1	-1.7912295e-07
57	0xae5f1ba3	-5.0728876e-11
58	0x2e0229ac	2.959559e-11
59	0x37317662	1.0577585e-05
60	0xb8a4280b	-7.827588e-05
61	0x3153675b	3.0763292e-09
62	0xb531f16a	-6.628894e-07
63	0x3818e1f0	3.6450045e-05
64	0x31ce79b5	6.0092256e-09
65	0xb553c015	-7.888314e-07
66	0xb65090d9	-3.1078728e-06
67	0xb9c4afcf	-0.0003751502
68	0xb5057a15	-4.9724014e-07
69	0x32534654	1.2297807e-08
70	0xb812548c	-3.4887853e-05
71	0x33233ad9	3.8004917e-08
72	0xb84dd187	-4.9070946e-05
73	0xb07f1214	-9.279415e-10
74	0xb6f3f902	-7.2709527e-06
75	0x3a4d8d43	0.0007841179
76	0x3802a5f7	3.1148982e-05
77	0x376eb703	1.4228516e-05
78	0xb48b033a	-2.5893115e-07
79	0xb78a6544	-1.6498037e-05
80	0xadc83513	-2.2760937e-11
81	0x378d3349	1.6832391e-05
82	0xb254d82e	-1.2389178e-08
83	0x2df11225	2.7406586e-11
84	0xba8ab65d	-0.0010582913
85	0x37b2f6fe	2.1334268e-05
86	0x33c0af80	8.97262e-08
87	0x3908b311	0.00013036678
88	0x35d456eb	1.5820527e-06
89	0x30b3a6bf	1.3071356e-09
90	0x2d601a9f	1.2738837e-11
91	0x3b081f51	0.002077062
92	0x3244d55a	1.1457212e-08
93	0xb59b359f	-1.1564006e-06
94	0xb60be53f	-2.0846053e-06
95	0x30caf071	1.4765772e-09
96	0xb0445540	-7.142553e-10
97	0xb8115249	-3.4647328e-05
98	0x3a0e5c29	0.0005430603
99	0x3903e590	0.00012578652
100	0xb213c20b	-8.600646e-09
101	0x2f0957ad	1.2491226e-10
102	0x383329c0	4.271581e-05
103	0xb9134a3c	-0.00014046667
104	0xb25bf3a6	-1.2802877e-08
105	0x33889ec6	6.361874e-08
106	0x320c1646	8.154137e-09
107	0xb6b31edb	-5.3382078e-06
108	0x374425fd	1.1691355e-05
109	0x31b43e5e	5.24578e-09
110	0x343c3227	1.752711e-07
111	0xb9922a77	-0.0002787893
112	0x37aafd44	2.0383515e-05
113	0x35be8073	1.4193487e-06
114	0xb43abece	-1.7392014e-07
115	0xade9bdcc	-2.657332e-11
116	0xb5698ec9	-8.7007044e-07
117	0xacac45d0	-4.8962848e-12
118	0xb900638a	-0.00012244112
119	0x3a8ae2bb	0.0010596135
120	0x3124b915	2.3970348e-09
121	0x3813f546	3.527596e-05
122	0xaf980328	-2.7650882e-10
123	0xb1597ddf	-3.1649205e-09
124	0x373be6ca	1.1199803e-05
125	0x3339ee28	4.329027e-08
126	0x3658269a	3.2208977e-06
127	0xb27776c4	-1.4404296e-08
128	0x35aea67e	1.3012466e-06
129	0x39ab9961	0.00032729938
130	0x38c37d04	9.3216106e-05
131	0x32a57993	1.9263814e-08
132	0xba907795	-0.0011021966
133	0xb99464e0	-0.00028303917
134	0x32da17f4	2.5389433e-08
135	0xaf37678e	-1.6680543e-10
136	0xb0d85b19	-1.574196e-09
137	0x313f3159	2.782221e-09
138	0x30b86a46	1.3417967e-09
139	0xb88d1714	-6.7277026e-05
140	0x2c8b81bb	3.9650206e-12
141	0x3534faad	6.7420007e-07
142	0x3700c51d	7.6752885e-06
143	0x3376d0ec	5.746635e-08
144	0x3753ae10	1.2617107e-05
145	0xb10beb7e	-2.0361024e-09
146	0x34a3b2a8	3.0491105e-07
147	0x3800d4cb	3.0715757e-05
148	0xb05121f3	-7.6082e-10
149	0xb9463324	-0.00018901803
150	0xb4bbdf41	-3.4993903e-07
151	0x3445c21c	1.8417671e-07
152	0x3823525b	3.8938928e-05
153	0x2f805a1a	2.3347085e-10
154	0xb891fe65	-6.9615235e-05
155	0xb6b9b6cc	-5.53471e-06
156	0x37c99568	2.403064e-05
157	0xb9a71f1e	-0.00031875906
158	0xb4ca410f	-3.7672768e-07
159	0xb6015bbf	-1.9275901e-06
160	0xb71ac768	-9.225543e-06
161	0xb7190473	-9.120547e-06
162	0x3083891d	9.570474e-10
163	0xb9f12b6a	-0.00045999448
164	0xb483678b	-2.447599e-07
165	0x31a7616d	4.8714157e-09
166	0xb08168d5	-9.41578e-10
167	0x369f758c	4.7522535e-06
168	0xb95f31c5	-0.00021285478
169	0x3707fd36	8.105582e-06
170	0xb158016d	-3.1432947e-09
171	0x37dc4e8f	2.6262625e-05
172	0xb7487ad8	-1.1949531e-05
173	0xb0015138	-4.7045345e-10
174	0x361352a6	2.1952815e-06
175	0x34a379d9	3.0449772e-07
176	0x34658cff	2.1378581e-07
177	0x350b26a9	5.1837793e-07
178	0x30238191	5.948318e-10
179	0x37a9854e	2.0208445e-05
180	0xb5c7db76	-1.4890527e-06
181	0xb71830e3	-9.071288e-06
182	0x2eafe30e	7.998412e-11
183	0xb291bdff	-1.6966622e-08
184	0x3355e4e0	4.9801088e-08
185	0xb27d3b7a	-1.4740062e-08
186	0xb9535707	-0.00020154948
187	0x31c6217e	5.766366e-09
188	0x38aa7606	8.128215e-05
189	0x2f52c1ef	1.9168288e-10
190	0xb4277674	-1.559618e-07
191	0xba156ec8	-0.00057004066
192	0xb4eeca73	-4.4478256e-07
193	0xb52d521b	-6.4567e-07
194	0xb8c7118f	-9.49233e-05
195	0x32c37e99	2.2758558e-08
196	0xb5bada6e	-1.3921651e-06
197	0xb6a9fee8	-5.0662675e-06
198	0x38243907	3.9153758e-05
199	0x30aa6f2b	1.2400724e-09
200	0xb1179871	-2.2060045e-09
201	0xaeaf46e1	-7.970669e-11
202	0xb445d7c9	-1.8425557e-07
203	0x37aee41e	2.0848642e-05
204	0x3488c596	2.5475737e-07
205	0xb0d31496	-1.5358121e-09
206	0xb5004cd9	-4.7795544e-07
207	0x3427c5ac	1.5625e-07
208	0xb7a747d5	-1.99414e-05
209	0x32c2dce8	2.2685029e-08
210	0x31d00092	6.0536616e-09
211	0xb4105216	-1.3440908e-07
212	0xb56dca80	-8.8584056e-07
213	0x33c50a00	9.175346e-08
214	0x33eba984	1.0973875e-07
215	0xb4e018cc	-4.1741293e-07
216	0xb3a1c129	-7.532282e-08
217	0xb87e96d5	-6.0698792e-05
218	0xaf1d9e19	-1.4335234e-10
219	0x3148950b	2.9188552e-09
220	0x37a120d8	1.920799e-05
221	0xb07d6ae4	-9.2192765e-10
222	0xb89957bb	-7.3119496e-05
223	0x3371e6fa	5.6322257e-08
224	0x389ff393	7.62708e-05
225	0xacdce192	-6.2778194e-12
226	0x38981875	7.25248e-05
227	0xb295b076	-1.7426128e-08
228	0xb4f14505	-4.4939966e-07
229	0xb8c67ddf	-9.464821e-05
230	0x3952eebc	0.00020116096
231	0x3762248a	1.3479157e-05
232	0x39e0e6f6	0.0004289669
233	0xb758b1d3	-1.2916006e-05
234	0xb7daac96	-2.6067992e-05
235	0x39487df3	0.00019120406
236	0x30e1a94f	1.6419025e-09
237	0xadba6756	-2.1191642e-11
238	0x3205f24d	7.796712e-09
239	0xb1d01a5e	-6.0565943e-09
240	0x36781c46	3.6971337e-06
241	0xb1935cf7	-4.288832e-09
242	0xb5f96221	-1.8580505e-06
243	0x32c0700d	2.2402697e-08
244	0x2f085b78	1.2401624e-10
245	0xb186c8b6	-3.9227315e-09
246	0xba77e0e2	-0.00094558124
247	0xb8463116	-4.7252594e-05
248	0xaefce96d	-1.1501098e-10
249	0xb187c292	-3.951137e-09
250	0x3767f2f9	1.3825244e-05
251	0xb64a7bca	-3.01724e-06
252	0xb9c630f3	-0.00037801973
253	0x321ce0c3	9.1315e-09
254	0xb88bf436	-6.673524e-05
255	0xb7f12021	-2.87444e-05

lbad2.1.weight f4 [360]
0	0x31fa1670	7.2785085e-09
1	0x3b37edc9	0.0028065315
2	0xba80ed7f	-0.0009836404
3	0x3b5f3d6c	0.003406371
4	0x3a0d3811	0.00053870777
5	0x3530f9c2	6.5928555e-07
6	0xba259b98	-0.0006317436
7	0x3c956ba1	0.018239798
8	0x3604c0e8	1.978182e-06
9	0xbd769a96	-0.06020602
10	0x311e7375	2.3057656e-09
11	0x33d14c09	9.7461516e-08
12	0xb2ab9043	-1.9972623e-08
13	0xbe9acb57	-0.3023326
14	0x3561bcc4	8.409372e-07
15	0x3301b86d	3.0202887e-08
16	0xb292fb64	-1.7110956e-08
17	0xb5fb22fc	-1.8711139e-06
18	0xb51c40ea	-5.820899e-07
19	0xb9bdafb4	-0.00036179798
20	0xb79a0196	-1.835897e-05
21	0x33b88e74	8.59408e-08
22	0x3b3be656	0.0028671226
23	0xb8c7c57e	-9.525845e-05
24	0x3cb68ae0	0.022283018
25	0x3ecc3f9d	0.39892283
26	0x3cef1ff9	0.02919005
27	0xb2d499e0	-2.4750022e-08
28	0xafa01322	-2.9117425e-10
29	0x3672e495	3.6193862e-06
30	0x34f3e7ff	4.5431077e-07
31	0xb343fd1e	-4.5632184e-08
32	0x3024085b	5.9674726e-10
33	0xbc700b80	-0.014651179
34	0xb5dedc7b	-1.6604457e-06
35	0xb591663e	-1.0833098e-06
36	0x386e70eb	5.6848785e-05
37	0xb2b1fe2a	-2.0721092e-08
38	0x393cfad4	0.00018022518
39	0x3002a639	4.752994e-10
40	0x3712dabd	8.753207e-06
41	0xb53681a4	-6.7988935e-07
42	0x3e1d892d	0.1538436
43	0xbbe59f80	-0.0070075393
44	0x39050ed3	0.00012689391
45	0x3b883758	0.004156988
46	0xb3180a12	-3.5399417e-08
47	0x3bb6d3a6	0.0055794297
48	0x3e9cd438	0.3063066
49	0x348955d0	2.5580675e-07
50	0xb21c6dbb	-9.105345e-09
51	0xb62d20ed	-2.5798174e-06
52	0xb4e43fa1	-4.2514606e-07
53	0x34a56ad9	3.0811387e-07
54	0xad92bdd8	-1.6682586e-11
55	0xbe0bf5a6	-0.13667926
56	0xaf0f0d0f	-1.3010414e-10
57	0x345665b5	1.9967304e-07
58	0xb3afa7d0	-8.1795974e-08
59	0x3d09fdbf	0.033689257
60	0x3ead6a63	0.3387023
61	0x354868f2	7.465852e-07
62	0x2fa56e6c	3.0091785e-10
63	0x390ac57a	0.00013234271
64	0xb7eace0f	-2.7990927e-05
65	0x3a53e296	0.0008082775
66	0x287bdda1	1.3981357e-14
67	0xb9fabc4d	-0.0004782401
68	0x325d6ddd	1.2888873e-08
69	0x33cedeb2	9.6331306e-08
70	0xb8ae46dc	-8.310165e-05
71	0xbac766d2	-0.0015213138
72	0xb5ece1d4	-1.7649095e-06
73	0xae42c2dc	-4.4283563e-11
74	0x30bec2c5	1.3879676e-09
75	0x33de3398	1.03470654e-07
76	0x33fdd546	1.1820025e-07
77	0x38ed191c	0.000113057176
78	0xbd88ad44	-0.06673673
79	0xb593838d	-1.099064e-06
80	0xb2a2e939	-1.896534e-08
81	0x38e2dc46	0.00010817549
82	0x36981d74	4.533382e-06
83	0x331d7a1d	3.6665472e-08
84	0x328ac716	1.6155848e-08
85	0xb5ad9cb1	-1.2935108e-06
86	0x3c59ea14	0.0133004375
87	0xbf02c3a5	-0.5107978
88	0x38d30993	0.000100630474
89	0x305a4057	7.939937e-10
90	0x3213315f	8.567752e-09
91	0x3876e2b4	5.8862104e-05
92	0x32b12c80	2.0625748e-08
93	0x36ea5dad	6.9846487e-06
94	0x2d65e551	1.3068061e-11
95	0xb643e702	-2.9191729e-06
96	0xafd986b6	-3.9567788e-10
97	0xbea69684	-0.3253671
98	0x3192cf61	4.2727355e-09
99	0x308114d2	9.391903e-10
100	0x31980a9f	4.4249897e-09
101	0x3405a348	1.2445992e-07
102	0xbc114d94	-0.008868594
103	0x38433d42	4.6548674e-05
104	0x372aa10c	1.0170286e-05
105	0x320979c3	8.002135e-09
106	0x2fb6c3e9	3.324481e-10
107	0xba36a5b4	-0.0006967441
108	0xb3c0efb1	-8.984296e-08
109	0xb2f0bab5	-2.8024582e-08
110	0x33711489	5.613086e-08
111	0x3dca63a4	0.09882286
112	0xb8fd1c48	-0.00012069248
113	0xb8692cec	-5.5593366e-05
114	0x3a7f56f0	0.0009740433
115	0x322aa4f6	9.93281e-09
116	0x3bc554cb	0.006022071
117	0x33bf17f2	8.898486e-08
118	0x3226d71a	9.71138e-09
119	0xb4b10808	-3.2974663e-07
120	0x319a745a	4.4952175e-09
121	0x2ccaf707	5.768611e-12
122	0xb58906c4	-1.0209264e-06
123	0xb5acdadf	-1.2878698e-06
124	0x340702ba	1.2573847e-07
125	0xb29cc069	-1.8248288e-08
126	0x2f839743	2.393624e-10
127	0x2f7397e9	2.215469e-10
128	0x3109a20c	2.0028237e-09
129	0x332bb245	3.9976175e-08
130	0xbdf80a25	-0.1211131
131	0xb398db42	-7.117934e-08
132	0x35516e62	7.8019195e-07
133	0xbc8fbab6	-0.017545085
134	0xb8350cfd	-4.316586e-05
135	0xb2c17d5a	-2.252516e-08
136	0xb4d0d3c7	-3.8897107e-07
137	0xb2468413	-1.1555147e-08
138	0x2a448c30	1.7456934e-13
139	0xb8b3a785	-8.566588e-05
140	0x2eb0caae	8.0395565e-11
141	0xb6138ded	-2.1987319e-06
142	0xb451c0fc	-1.9534849e-07
143	0x2717dd47	2.1075414e-15
144	0x38877dbd	6.460722e-05
145	0x335daa7d	5.161063e-08
146	0xb386f873	-6.285054e-08
147	0xb44286dc	-1.811672e-07
148	0xac080282	-1.9328155e-12
149	0x32dd4c54	2.5762496e-08
150	0xb61deb70	-2.3531866e-06
151	0xbb35ec89	-0.0027759394
152	0x35e61796	1.71432e-06
153	0x3702d13c	7.79732e-06
154	0x385634cf	5.1070758e-05
155	0xb40f8090	-1.3364684e-07
156	0xb3b34412	-8.347719e-08
157	0x3cc73e51	0.024321707
158	0x32f94d06	2.9022441e-08
159	0xb08e1384	-1.0337406e-09
160	0x3b0e94b7	0.0021756121
161	0x3334150a	4.192865e-08
162	0x348f235b	2.666155e-07
163	0xbae113dc	-0.0017172056
164	0xb78415db	-1.5745803e-05
165	0xb40ceab3	-1.3123899e-07
166	0xb915df0c	-0.00014292839
167	0xbe1674c7	-0.14692985
168	0xbe2b840b	-0.16749589
169	0x3e8c043d	0.27346984
170	0x3a642619	0.0008703187
171	0xb61ca50e	-2.3341886e-06
172	0xb8cb56da	-9.695972e-05
173	0xb9790d82	-0.00023751523
174	0x3bc1e575	0.005917246
175	0xb51f37e0	-5.9313425e-07
176	0xb40549f9	-1.2413501e-07
177	0x373441f1	1.0744189e-05
178	0x3ae26576	0.0017272669
179	0xbb093b4c	-0.0020939885
180	0xbc63c6cc	-0.013902377
181	0xb937d3d7	-0.00017531156
182	0x38fbbc97	0.0001200374
183	0xb88db680	-6.757397e-05
184	0xbaa5c959	-0.0012648507
185	0xb081ec4c	-9.453145e-10
186	0xb930b2ac	-0.00016851228
187	0x34b9bf61	3.4598182e-07
188	0x3e3535ff	0.17696379
189	0x3647597f	2.9705404e-06
190	0x3d0254ef	0.03181928
191	0xbe674a69	-0.22586979
192	0x30dc578d	1.603199e-09
193	0x3b2b2ad7	0.0026118064
194	0xb591534c	-1.0827584e-06
195	0x35000490	4.7690355e-07
196	0x34fff7c7	4.7677733e-07
197	0xb113127f	-2.140183e-09
198	0xbb388df7	-0.002816079
199	0x3788d64b	1.6312251e-05
200	0x344dc916	1.9165267e-07
201	0x31b95352	5.393681e-09
202	0xb02ee170	-6.3621197e-10
203	0xbe8c6326	-0.27419394
204	0x374ab3e7	1.2082025e-05
205	0x33e4cf39	1.0654771e-07
206	0x337104dc	5.6116605e-08
207	0xb33a04e4	-4.3310948e-08
208	0x2ea5f003	7.545966e-11
209	0xb4a3fc6f	-3.0544786e-07
210	0xb44ec9b3	-1.9258623e-07
211	0xb9a317a5	-0.000311074
212	0xb230d67b	-1.02933155e-08
213	0xb51735dd	-5.6330265e-07
214	0xb7809933	-1.5330128e-05
215	0x33e3aade	1.0601592e-07
216	0x35494708	7.49817e-07
217	0x3eb8ebf9	0.36117533
218	0xb4d26bfa	-3.9194111e-07
219	0x339488c6	6.916666e-08
220	0x3e8f0e43	0.27940568
221	0x2f542412	1.9294102e-10
222	0x36584cc3	3.223119e-06
223	0x39916c2d	0.00027737152
224	0x3bacc85d	0.0052729086
225	0x2d83163c	1.490285e-11
226	0xb79ad145	-1.845568e-05
227	0xaf471628	-1.8106816e-10
228	0xbcda6031	-0.026657196
229	0x31935fbe	4.2891477e-09
230	0xbf187310	-0.5955057
231	0x39022a13	0.0001241344
232	0xbb44dc52	-0.0030038548
233	0xb00633c4	-4.882248e-10
234	0x220e10eb	1.9253545e-18
235	0xb30012ba	-2.9819354e-08
236	0x330d89a0	3.295429e-08
237	0x30b0d055	1.2864897e-09
238	0xb2aa9e1f	-1.986251e-08
239	0xb7b1bfd7	-2.1189377e-05
240	0xb498f2f6	-2.8488984e-07
241	0x31293233	2.4621272e-09
242	0x346e4cf5	2.2193474e-07
243	0xb9e84615	-0.00044302703
244	0xb06d6aea	-8.637203e-10
245	0x37a7ae5c	1.9989144e-05
246	0xb1382f1b	-2.68023e-09
247	0xb330ea0a	-4.119105e-08
248	0xb2f5fcbc	-2.8636684e-08
249	0x3950d67d	0.00019916329
250	0xb48bb899	-2.602508e-07
251	0x3cd1075b	0.025516203
252	0x38c27529	9.272464e-05
253	0x38ccbd7d	9.762773e-05
254	0xae28aacd	-3.835048e-11
255	0xbd60510e	-0.0547648
